packages/camphr_transformers/tests/fixtures/ner_bert/pytorch_model.bin (torch, 49117 bytes, 23 tensors)

bert.embeddings.word_embeddings.weight f4 [402, 16]
000000 00 00 00 00 00 00 00 00 00 00 00 00 00 00 00 00
       0.0 0.0 0.0 0.0
000010 00 00 00 00 00 00 00 00 00 00 00 00 00 00 00 00
       0.0 0.0 0.0 0.0
000020 00 00 00 00 00 00 00 00 00 00 00 00 00 00 00 00
       0.0 0.0 0.0 0.0
000030 00 00 00 00 00 00 00 00 00 00 00 00 00 00 00 00
       0.0 0.0 0.0 0.0
000040 0c 51 a0 bb 6c f6 e8 3c 3e 6f 61 bb 61 09 03 bb
       -0.004892474 0.028437816 -0.003439858 -0.0019994604
000050 92 ef 28 3d d9 c1 19 3c 42 cd 0a bd a7 34 89 3c
       0.041244097 0.009384596 -0.033887155 0.01674874
000060 45 78 52 3c 5f d5 88 bc b9 e4 8f 3c 7d 8f 8a 3c
       0.012846057 -0.016703306 0.017565118 0.016914124
000070 0b e2 21 3b e4 16 03 3d 20 78 e8 bc 24 f5 83 bc
       0.0024701382 0.032004252 -0.028377593 -0.016108103
000080 1b ba 4f 3c 46 c7 a1 3c 52 88 9b 3b 47 02 1b 3b
       0.012678648 0.019748341 0.0047464753 0.002365248
000090 21 f0 1b bc d0 96 a8 bc 10 0a 82 3b a2 69 12 bd
       -0.0095177 -0.020579726 0.0039684847 -0.03574527
0000a0 18 4e 89 bc a0 99 6e bc c2 53 d7 3b 47 72 7b 3c
       -0.01676087 -0.014562994 0.006571264 0.01534707
0000b0 e2 54 f7 bc c4 e8 26 3d 4b 74 c5 bc 62 c0 4c bc
       -0.030191842 0.040749326 -0.024103304 -0.0124970395
0000c0 d7 ab 7e bc 82 15 c4 bb 36 e7 03 3c 6d 86 82 3b
       -0.0155438995 -0.0059840092 0.00805073 0.00398331
0000d0 29 34 c3 3b 59 be 44 3c 53 6d 46 bc c1 97 24 3c
       0.0059571457 0.012008273 -0.012111026 0.010045947
0000e0 a6 f8 ae bc fb 6a c6 3c b6 6f a3 bc d4 94 57 bb
       -0.0213588 0.024220934 -0.019950729 -0.0032895105
0000f0 63 25 fc 3c 12 f4 bb 3c 29 b1 24 bd 79 52 65 bc
       0.030779546 0.02294353 -0.040208016 -0.013996714
000100 21 07 02 3d 42 bf 92 bc e7 cc 6d 3c 3e cd 36 b9
       0.03174508 -0.017913464 0.014514185 -0.00017433331
000110 a0 a3 25 bc 16 9f 2c 3c 72 00 4c bd 3e 0c 17 3c
       -0.010109812 0.010535976 -0.049805112 0.009219227
000120 c1 85 9a bc f4 0e ad 3a 95 7a 1c 3b b7 a9 fd bc
       -0.018862607 0.0013203309 0.0023876776 -0.030964715
000130 52 b3 16 3d bd 32 36 3c c4 5b d0 3c 1f 4f 00 3c
       0.036792107 0.011120495 0.025434382 0.007831364
000140 0f 10 b6 bc cd ab 86 3a 24 e6 05 3d 3d 66 bc bc
       -0.022224454 0.0010274589 0.032690182 -0.02299797
000150 26 49 13 3c 83 89 96 bb 12 8f 97 3c b2 4b 2a bb
       0.008989608 -0.0045940294 0.018500838 -0.002598506
000160 13 e1 7d 3c 79 57 82 3b 59 51 25 bc 98 46 94 3c
       0.015495556 0.0039777127 -0.010090196 0.018100068
000170 45 30 ba 3b d6 fc 22 3c 19 85 b2 bc d4 5c a2 3b
       0.0056820237 0.009947976 -0.021791982 0.0049549136
000180 6b 22 a5 3b e2 70 95 3c a0 8a 08 bd b4 fc de 3c
       0.0050395033 0.018242303 -0.033335328 0.027220108
000190 2f ce bb 3b f5 18 bb b9 69 be 3b bc 8a 85 a0 bb
       0.005731366 -0.00035686014 -0.011458972 -0.0048987316
0001a0 dd 79 04 bd f0 ea 81 3b 1e df de 3c b2 3e f1 bc
       -0.03234278 0.0039647743 0.027206 -0.02944884
0001b0 cb 04 2d 3c 89 84 16 bb e1 88 f7 bc 09 6e 8b 3a
       0.010560225 -0.002296718 -0.030216636 0.0010637651
0001c0 dd 11 a2 bb 9f 18 89 bc b5 4f 46 bc 1e 30 aa 3c
       -0.004945977 -0.016735373 -0.012103965 0.020774897
0001d0 41 26 48 bd 8d a6 22 3c e4 4d 23 3d db 7f cb bb
       -0.048864607 0.009927404 0.039869204 -0.00621031
0001e0 ef e4 6a 3c be 5a 6f 3b fc 8b 3c bc ab 1a ae 3b
       0.014336809 0.0036522592 -0.011507984 0.0053132377
0001f0 ee da 73 3c 20 23 b8 3c fc cb ad bb 5b d0 41 bc
       0.01488374 0.022477686 -0.005303858 -0.011829461
000200 d2 67 4a 3b e9 55 c5 bc cc 4e ff 3b f4 ff ad b9
       0.0030884636 -0.024088817 0.0077913757 -0.0003318783
000210 21 ca da ba 73 5c f8 bb 06 76 77 ba e4 3b 83 3c
       -0.0016692319 -0.00757938 -0.0009439889 0.016019769
000220 ce 9b 0a 3c 16 04 99 3c d2 71 bc 3b 26 5e 90 3c
       0.008459998 0.018678706 0.005750873 0.017623018
000230 d6 b5 9d bc 6f b2 be 3c 1d 7b 75 3c a2 95 0a 3b
       -0.019251745 0.023278443 0.014982966 0.0021146317
000240 4f ba f7 3b 53 11 ab bb 09 59 61 bc ef 60 9b 3c
       0.0075600515 -0.005220571 -0.013754138 0.01896712
000250 8b ea 19 bc 89 78 90 bc ca bb 1c 3c 8f 02 ff 3b
       -0.009394298 -0.0176356 0.009566257 0.0077822874
000260 dc e9 c9 3c 58 e2 fc bc 4f 63 7b 3a aa 2c bd bc
       0.024647646 -0.030869648 0.0009589688 -0.023092587
000270 9d 5a 1b bc dc 19 9d 3b f1 d4 a1 3b 39 ee 48 bd
       -0.009482053 0.0047943424 0.0049387147 -0.04905531
000280 4f 35 98 3c 8e 2e a4 bc 23 3c 94 bb 0e 12 42 bc
       0.018580107 -0.02004173 -0.0045237704 -0.011845125
000290 f2 2a b8 3b 19 be 0a 3c f2 58 14 3b e7 82 1b bc
       0.005620354 0.008468174 0.0022636023 -0.009491659
0002a0 02 08 9c bc 20 66 03 3b a5 40 32 bd 39 34 33 3c
       -0.019046787 0.0020049885 -0.04351868 0.010937744
0002b0 23 b8 f6 bc 3d 3f 05 bd e3 73 07 3c 70 ea bc b9
       -0.0301171 -0.03253101 0.008267376 -0.00036032824
0002c0 bc 84 31 bc a2 ac dc 3c 32 59 d7 bb b2 77 3d bc
       -0.010834869 0.026937786 -0.006571912 -0.011564182
0002d0 4b 23 92 bc 3e 80 2a 3c da 5c 82 bc 37 cc 91 bb
       -0.017839095 0.010406552 -0.015913416 -0.004449393
0002e0 37 d8 6b bc bc ab 6a bc 42 08 74 ba 9c c7 0a bc
       -0.014394811 -0.014323171 -0.0009309092 -0.008470442
0002f0 d2 9f ce 3c 27 c5 a2 bc c4 26 e3 3b c0 c6 12 3b
       0.025222693 -0.0198694 0.0069321115 0.0022396296
000300 c5 93 2f bc bd 93 6a 3c 86 13 1f 3c 78 e3 29 3a
       -0.010716383 0.01431745 0.009709245 0.0006480734
000310 4c c3 fc bc 9f 83 89 3c d8 93 45 3d 4a e0 d1 3b
       -0.030854844 0.016786395 0.048236698 0.006404911
000320 a6 99 8b 3c 32 10 01 3c 00 5a 78 bb 04 92 22 bd
       0.017041039 0.007877396 -0.003789544 -0.039690033
000330 15 ca 63 3c c0 ec a2 3a aa cd fc ba e4 66 82 bc
       0.013903161 0.0012430176 -0.0019287367 -0.015918203
000340 30 d8 03 bd 6c f1 5c 3c 55 eb 68 bc a4 f4 92 bb
       -0.032188594 0.013485294 -0.014216264 -0.00448473
000350 33 df 8d 3c 92 d5 70 3b 19 b4 cb 3c a0 87 7f 3c
       0.017318344 0.0036748392 0.02486615 0.0155963
000360 b3 62 7e 3b 8e 45 4a 3b aa f0 62 3c 72 4d 17 3d
       0.0038816154 0.0030864212 0.013851324 0.036939092
000370 b3 da 0b 3d 33 52 35 bc af 69 87 3c 9d 08 39 3c
       0.034144115 -0.011066961 0.016529886 0.0112935575
000380 dd db b3 bb 86 9b 0c 3b e9 4d 9e bc 6a 55 a2 bb
       -0.005488856 0.0021455004 -0.01932426 -0.00495403
000390 84 40 93 bc 64 3a 36 bc ca 6f d3 bc 27 f9 f2 bc
       -0.0179751 -0.01112232 -0.025810141 -0.02965982
0003a0 0b fa 22 3c 77 af b0 bc 98 83 ef bc a5 42 70 bc
       0.00994731 -0.021568043 -0.029237553 -0.014664327
0003b0 61 c9 57 3c e8 ed 0c bc 26 c0 6e bc 32 49 2c 3c
       0.013170571 -0.008601643 -0.014572179 0.010515498
0003c0 0e 3d 6c bc 59 4c 12 3a f7 93 54 bc 79 78 9d 3c
       -0.014418853 0.00055808347 -0.012974731 0.019222485
0003d0 86 9a de 3a 04 c6 01 3c d4 25 12 bd 77 6c 41 3c
       0.0016983307 0.007920746 -0.035680607 0.011805645
0003e0 02 33 75 bc 3d 65 1f bb 65 4c 79 bc fe 88 d2 3c
       -0.0149657745 -0.0024321817 -0.015215968 0.025700089
0003f0 6e 84 fb 3b ee 3e 6b bb ea f8 19 bd 36 b7 03 3d
       0.007675699 -0.0035895663 -0.0375909 0.032157145

bert.embeddings.position_embeddings.weight f4 [16, 16]
000000 03 16 80 bb 80 a8 9d bc 99 98 f5 bc 80 65 ae bc
       -0.003908874 -0.019245386 -0.02997999 -0.021288633
000010 3d 32 b6 3c 67 d8 00 bd 5d 43 18 3c 40 23 e5 bc
       0.022240752 -0.031456377 0.009293404 -0.02797091
000020 27 9e 4c 3c 27 ce db ba 09 48 0b bb c3 4d 89 3b
       0.012488878 -0.0016769812 -0.0021252653 0.004190178
000030 0c e0 6a 3c 27 83 38 bb 69 74 57 bc 25 00 36 bd
       0.0143356435 -0.0028154345 -0.013150313 -0.04443373
000040 96 7f 2f 3c e9 e9 15 3c 27 5a 11 3c 65 7e 15 bd
       0.010711571 0.009150007 0.008871592 -0.036497492
000050 f0 d0 5c 3c 27 f6 d6 3c ab c7 a9 3b c2 23 a8 bc
       0.013477549 0.026240421 0.005181273 -0.020524863
000060 33 1c 45 bc 64 9d 4b bc 6e 03 1a bd 8e 8b e9 3c
       -0.012030649 -0.012427662 -0.037600927 0.028508928
000070 3c f0 39 3a 6e 4f 4e bd 28 73 0f bd 4f 5f 01 bd
       0.00070929877 -0.05036872 -0.03502193 -0.031585034
000080 a5 ed cf 3c bc a4 d6 3c a5 08 c2 3c b8 6b 68 3b
       0.025381872 0.026201598 0.023685763 0.0035464596
000090 55 81 b4 bc 21 51 36 bc 23 04 82 bc 3c 8f 6b 3c
       -0.022034327 -0.011127741 -0.015871113 0.014377411
0000a0 dc 0e 51 3c d9 f6 8c bc fb 2f e3 3c 90 66 90 3c
       0.01275989 -0.01720755 0.02773284 0.01762703
0000b0 d0 07 83 3c 70 b9 ce bb 5c 9e 95 3b cd 1a 03 bd
       0.015994936 -0.006308727 0.004565997 -0.03200798
0000c0 79 58 21 3d f5 b2 b4 bb db 1e 00 3d 78 98 ee bb
       0.039391015 -0.0055144974 0.031279426 -0.0072813593
0000d0 19 7b 85 3c 77 6a b9 3c a4 d7 81 3c 54 c8 9f bb
       0.01629405 0.022633774 0.015849896 -0.004876176
0000e0 92 c7 2b 3c 3d 6d 5e bc 7b f4 61 3b 4b f8 d0 3b
       0.010484593 -0.013575849 0.0034477997 0.006377255
0000f0 83 29 99 bb 45 32 38 3c 94 ce a4 3c 05 69 aa 3c
       -0.004674138 0.011242454 0.020118035 0.02080203
000100 47 bd 42 3b 57 33 3d ba 48 5c 06 3c 50 be 22 3c
       0.002971487 -0.0007217428 0.0082007125 0.009933069
000110 10 24 41 3c 1d 53 cb 3c 24 c0 0c bd 8f 6c 1d bd
       0.011788383 0.024819905 -0.034362927 -0.038433608
000120 29 f9 ab bc b4 f4 92 bb e2 06 cd bc 14 d6 d6 bc
       -0.020992832 -0.0044847373 -0.025027696 -0.026225127
000130 c4 b0 a7 bb 5d d3 ee bc 1b 38 06 3d c1 bb 2e b9
       -0.0051175077 -0.02915352 0.03276835 -0.00016663877
000140 8a 62 67 39 cc 33 72 bb 21 04 49 bc f4 53 c0 3a
       0.00022066585 -0.0036957143 -0.012269051 0.0014673457
000150 9e 41 a8 3c 1b 86 ed bb 30 6d 04 bc 4a 3c 24 bd
       0.020539101 -0.0072486526 -0.008082673 -0.04009656
000160 5b 3c 4b bb 14 b2 01 3b a6 a0 50 bb 52 33 b1 3c
       -0.0031011316 0.001978998 -0.0031834035 0.021630917
000170 76 a1 98 3c 0d fc 15 bc 4d ba 8f 3b 00 c1 db 3c
       0.018631678 -0.009154332 0.0043862225 0.026825428
000180 ca ad 9e ba f6 26 9c bc 20 76 8a 3a 24 a6 81 bc
       -0.0012106237 -0.019061547 0.0010563768 -0.015826292
000190 6a 7a 11 3d 14 92 e8 bc 53 4b 33 bd fb 08 d4 3c
       0.035517134 -0.028389968 -0.043773007 0.025883188
0001a0 74 a9 98 3c 11 3a a2 bb 53 75 15 bd 52 bd d7 3c
       0.018635489 -0.0049507697 -0.036488842 0.026335392
0001b0 93 3e 4d bc fa ec 19 bc d3 c0 d4 3c ef ce d8 3b
       -0.012527126 -0.0093948785 0.025970852 0.0066164653
0001c0 21 0d 43 bd 4f be ce 3c cb 4f 69 bc cc 58 ed bb
       -0.047619943 0.02523723 -0.0142402155 -0.0072432514
0001d0 cd 58 8d bc 36 e3 19 bd 0b 98 7d 3b 21 fe 71 bc
       -0.017254258 -0.0375702 0.003869536 -0.014770062
0001e0 95 bf 74 bc aa ca 73 bc 55 d2 c6 3b 14 31 bb bc
       -0.014938255 -0.014879862 0.006067554 -0.02285055
0001f0 ca 4d bd 3b 20 b5 95 bc cb 15 c4 3c d6 6c 1c 3d
       0.0057770954 -0.018274844 0.023936173 0.03818973
000200 0c 3b ee 3c 16 bc 23 3c c5 d2 ed bb 9e 89 50 bc
       0.02908089 0.009993574 -0.0072577917 -0.012728123
000210 e2 4f 2d bc 75 60 3b bc 86 4e ba bb 33 ea 2e 3d
       -0.010578128 -0.011436571 -0.0056856303 0.04270382
000220 16 fe 21 3c 3c 0e 62 ba 89 02 08 bd 94 ba be 3c
       0.009887239 -0.0008623337 -0.033205543 0.023282327
000230 9e f3 6b 3c c0 18 78 3d ca 89 49 3c 07 bd 8a bc
       0.014401345 0.06057048 0.012300918 -0.016935838
000240 57 6c 9a 3c 91 88 20 bd 58 47 d0 bc d4 88 2e 3c
       0.018850489 -0.03919274 -0.025424644 0.01065274
000250 e4 fa bb 3a 77 5c 21 bb de 1d 12 bd 40 70 f1 3c
       0.0014341739 -0.0024621764 -0.035673015 0.02947247
000260 a7 5b 2e 3c 80 a1 8c 3c 72 04 0e 3c f3 1a 4a bc
       0.010641969 0.017166853 0.008668052 -0.012335527
000270 87 20 0d bd fd bd f6 3b c6 6c 75 bb 77 17 22 3c
       -0.03445485 0.0075299726 -0.0037448867 0.00989329
000280 a1 ef 3a bc 61 56 19 3d f1 e1 a0 bc b8 cc 28 3c
       -0.011409671 0.037435893 -0.019638987 0.010302715
000290 67 27 ce bc cf b4 eb bc 04 b0 cf 3a 34 de c9 bb
       -0.025165273 -0.02877274 0.0015845303 -0.006160522
0002a0 f5 73 c8 bb e6 78 f7 bb 67 93 8b 3c 86 73 b8 bc
       -0.006117339 -0.007552254 0.01703806 -0.022516023
0002b0 26 2f ff bb 51 b5 23 3d 89 79 c1 bb ac bc 92 bc
       -0.007787603 0.03996784 -0.0059043807 -0.017912231
0002c0 dc ed df bc 34 1d 22 3d 65 f6 3f 3b 1f d9 14 3c
       -0.0273351 0.03957863 0.002929115 0.009084969
0002d0 49 3b 13 bd a2 b5 14 3d c6 40 5d bc 85 de 27 bc
       -0.03594521 0.03630603 -0.013504213 -0.010245924
0002e0 c2 7f ce bc 72 a7 18 ba 34 97 61 3c 1f 07 8d 3c
       -0.025207404 -0.0005823291 0.01376896 0.01721531
0002f0 fc 6c 3e bc 8e ae c2 3c b6 b2 83 bb 4b ef 6a bb
       -0.011622664 0.023764875 -0.0040191067 -0.0035848196
000300 e2 82 14 bb 6e 18 8f bb 16 76 26 3b e9 76 02 bc
       -0.002266102 -0.004366926 0.0025399975 -0.007962921
000310 78 68 26 3b d3 21 4d 3c 86 47 49 3c 75 d3 fb 3b
       0.0025391858 0.012520271 0.012285119 0.0076851198
000320 2f 18 3e 3c ee 19 07 bd c0 c0 83 ba d9 95 06 3b
       0.0116024455 -0.032983713 -0.0010051951 0.0020536094
000330 b7 b8 9c bc 59 2f 1f bb db 80 48 bc ea 8f 59 3b
       -0.019131048 -0.0024289696 -0.012237753 0.0033197352
000340 19 c4 00 3d 36 0a af bb 25 6d 2d 3c c0 b0 87 bb
       0.031437013 -0.0053417934 0.010585104 -0.0041409433
000350 13 a0 37 bb 26 db 28 bc e6 ce 97 bc a8 5a 93 3c
       -0.0028018996 -0.010306155 -0.018531274 0.017987564
000360 c1 ba 23 3c d2 c9 b4 3b 00 19 d0 bc 20 02 5a b9
       0.009993256 0.005517223 -0.025402546 -0.00020790892
000370 ed 85 4c bd 62 29 a2 ba 0a e9 db 3b 5f 65 85 3c
       -0.04993241 -0.0012371952 0.00671113 0.016283689
000380 93 72 a1 bb 89 59 e3 bb b9 89 46 3b 7d 37 db 3c
       -0.0049269884 -0.0069381637 0.0030294491 0.026759857
000390 50 55 e2 3c 82 6a 9a 3c ee 2d b2 bc bd e9 e5 bb
       0.02762857 0.018849615 -0.021750417 -0.007016389
0003a0 cd 4a cc bc 4f b6 0d bc 9b 6e 33 bd a2 9a 51 bc
       -0.024938012 -0.008649423 -0.043806653 -0.012793215
0003b0 b9 fe e6 bb 45 ac f1 bc d9 99 d4 bc 97 e6 41 3c
       -0.0070494083 -0.02950109 -0.025952267 0.011834762
0003c0 2c 26 54 bc eb 2d 6e bc 13 4e 0a bd 97 e1 3e bc
       -0.012948554 -0.014537315 -0.033765864 -0.0116504645
0003d0 cb 79 47 bc 0a 20 9e bc 32 94 63 bb cf 11 12 3d
       -0.012175034 -0.019302387 -0.0034725782 0.035661515
0003e0 3b 1a 8a 3b 7d cd af 3b d0 3b b5 bc fe ca 3d bd
       0.0042145527 0.0053650723 -0.022123247 -0.046336167
0003f0 0a 4a 46 3b eb 25 cd bc e7 b5 c8 ba f9 b0 d9 bc
       0.0030256533 -0.025042495 -0.0015313 -0.026573645

bert.embeddings.token_type_embeddings.weight f4 [2, 16]
000000 3e 56 b0 bc c2 1b 5d 3c 82 5c 15 3b b3 6d 4e bc
       -0.021525498 0.0134953875 0.0022790735 -0.0125993965
000010 17 b9 94 3c 6d 9e 18 bc 57 19 29 3c cc ed 58 3b
       0.018154664 -0.009315115 0.010320983 0.0033100722
000020 f3 ca af 3c 4c d2 db 3c 6f 2e b5 3b 85 c5 54 3b
       0.021459078 0.026833676 0.005529217 0.0032466364
000030 ab ec 70 bc ba 6e 87 bc 6c 83 96 3c be 71 ad 3a
       -0.014704864 -0.01653229 0.018373214 0.001323275
000040 1b ad 87 3c 98 83 8e bc 14 53 fe 3b 54 6f b5 bb
       0.016562035 -0.017396733 0.0077613685 -0.005536953
000050 b4 ac 5b 3b 67 57 42 3c 5e 35 20 3d e2 33 b2 3b
       0.0033519687 0.011861659 0.039113395 0.005438314
000060 6e b9 1a bd c5 e2 d0 bc 2e 74 a0 bc f7 96 27 bd
       -0.037774496 -0.025498757 -0.019586649 -0.040915456
000070 58 15 2a 3c 54 c8 7b bc 1d bc 07 bc 7b 69 66 bc
       0.010381065 -0.015367586 -0.008284596 -0.014063234

bert.embeddings.LayerNorm.weight f4 [16]
000000 00 00 80 3f 00 00 80 3f 00 00 80 3f 00 00 80 3f
       1.0 1.0 1.0 1.0
000010 00 00 80 3f 00 00 80 3f 00 00 80 3f 00 00 80 3f
       1.0 1.0 1.0 1.0
000020 00 00 80 3f 00 00 80 3f 00 00 80 3f 00 00 80 3f
       1.0 1.0 1.0 1.0
000030 00 00 80 3f 00 00 80 3f 00 00 80 3f 00 00 80 3f
       1.0 1.0 1.0 1.0

bert.embeddings.LayerNorm.bias f4 [16]
000000 00 00 00 00 00 00 00 00 00 00 00 00 00 00 00 00
       0.0 0.0 0.0 0.0
000010 00 00 00 00 00 00 00 00 00 00 00 00 00 00 00 00
       0.0 0.0 0.0 0.0
000020 00 00 00 00 00 00 00 00 00 00 00 00 00 00 00 00
       0.0 0.0 0.0 0.0
000030 00 00 00 00 00 00 00 00 00 00 00 00 00 00 00 00
       0.0 0.0 0.0 0.0

bert.encoder.layer.0.attention.self.query.weight f4 [16, 16]
000000 41 a8 c4 bc b4 00 b8 3c 73 75 a2 3b a2 b3 a5 3c
       -0.024006011 0.022461273 0.0049578487 0.020227257
000010 c2 4c 10 3d 4e 07 92 3c 00 65 9d bb 22 03 e9 3c
       0.035229452 0.017825749 -0.0048033 0.028443877
000020 6f 12 ae 3b 77 de 5d 3c ed d1 83 3c d8 ad e1 3c
       0.005312256 0.013541809 0.016091311 0.027548715
000030 95 af c4 bc a2 4c 1c bd 5b c0 14 3c 97 fd 9a bb
       -0.024009505 -0.03815902 0.009079064 -0.0047299373
000040 fb 74 d0 bb c2 95 70 3c d3 f6 69 3b ae ef 4e 3c
       -0.0063616014 0.014684143 0.0035700097 0.012630386
000050 9e 33 d7 3b 98 dc c5 bc c7 38 f0 3c 2d 0a cb bc
       0.0065674325 -0.024153039 0.029323949 -0.024785126
000060 8b 7a 06 3d fe 8b ec 3c 6c 30 d5 bc 1b f6 96 3c
       0.03283171 0.028875347 -0.026024066 0.0184279
000070 2e f8 ee 3c 62 ae 9d 3c db 61 f0 3b f0 ae 09 3c
       0.029171076 0.019248191 0.007335884 0.008403525
000080 25 0e a4 bc e1 66 fb 3c f2 85 56 3c d3 b3 68 bc
       -0.020026276 0.030688705 0.0130934585 -0.01420303
000090 0e 52 e6 bc 5d 0c 1b bb 18 60 96 3a b4 77 bc ba
       -0.028115299 -0.0023658492 0.001147273 -0.0014378936
0000a0 a5 36 c9 3c 34 6b ec 3c 81 de 38 3d 32 76 1a 3b
       0.02456219 0.028859712 0.04513407 0.0023568985
0000b0 57 f7 93 3c 66 f2 d9 3b 47 51 2e 3c eb db 58 3c
       0.018062277 0.0066512106 0.010639495 0.013236026
0000c0 7a 93 94 3c 50 a9 2e bc 4f 98 8d 3c 84 e1 2a 3d
       0.018136729 -0.010660484 0.01728454 0.041718975
0000d0 7e 65 c1 3b 26 98 39 3c 96 82 11 bd bb 2c f8 b9
       0.0059019914 0.011327779 -0.035524927 -0.00047335573
0000e0 e1 cd 2a bc a6 5f d9 3c 17 a3 1e bc 06 8f 60 bc
       -0.010425062 0.026534867 -0.009682438 -0.013705974
0000f0 4a 95 fd 3c b8 13 b7 b9 12 8a f2 bb e4 c7 43 3b
       0.030954976 -0.00034919172 -0.007401713 0.0029873783
000100 1e 40 dc bc 2f 7c e6 bc e3 57 08 bd 4b 8f 25 3d
       -0.026886042 -0.028135387 -0.03328694 0.040419858
000110 59 0e 8b 3b a0 d0 a6 bc b2 6a 09 3d f7 e9 bc b8
       0.0042436537 -0.020363152 0.03354902 -9.008118e-05
000120 22 75 5a 3c d9 72 55 bb e4 56 05 3d 1b 5f f8 bb
       0.013333591 -0.0032569675 0.03255357 -0.007579697
000130 a4 53 81 3c cf ea a2 3c 19 aa 71 3a 7e 4b 04 bd
       0.015786953 0.019887356 0.0009218767 -0.032298557
000140 52 6a 01 bd 33 36 f9 3b 7e 30 17 bd 01 8a 56 3c
       -0.031595536 0.007605338 -0.03691148 0.013094426
000150 10 81 df ba 62 b2 78 3c 2a 14 f1 bc 13 c1 89 3a
       -0.0017052013 0.0151792485 -0.02942856 0.0010509811
000160 de 44 3d bc ad 1f 31 3b de 25 3b bc 59 90 76 3c
       -0.011552064 0.0027026937 -0.011422602 0.015049064
000170 bb a1 65 bc 59 6f 99 bc 26 7c 83 3c 47 64 bf bb
       -0.01401561 -0.018729853 0.01605041 -0.0058408114
000180 ef fa be 3b e7 77 91 3c 72 a1 40 bd 76 17 1e bd
       0.0058282535 0.01775737 -0.047028966 -0.038596593
000190 f2 77 18 3c b9 c4 d5 bc 9f 70 8f 3c a0 7e a9 3b
       0.009305941 -0.026094781 0.017509757 0.0051725656
0001a0 6d e2 14 bc 79 97 cd ba 97 f7 c7 3c 46 2a db bb
       -0.009087187 -0.0015685401 0.024410052 -0.006688389
0001b0 46 57 8a bc 1e 6b e9 bb 9e 37 36 bc 5d b0 63 bc
       -0.016887318 -0.007123365 -0.011121659 -0.013897029
0001c0 42 4f 6b bc 82 22 39 3c c1 fc f7 bb 95 85 a1 3b
       -0.014362158 0.011299731 -0.0075679724 0.0049292543
0001d0 c4 10 08 bc 12 b6 1b 3b f0 80 d0 3b c9 cb 40 3c
       -0.0083047785 0.0023759645 0.006363027 0.011767336
0001e0 5c c1 bd 3c b2 53 39 3d 3b 75 94 3c 34 e8 91 3c
       0.02316349 0.045245834 0.018122306 0.017810918
0001f0 87 4a 7a 3b 4f b2 48 3d f5 3a d5 3b 9c b0 12 3d
       0.0038191394 0.048998173 0.0065072724 0.03581296
000200 70 89 43 bc 09 5b b3 bc 1d 9e e1 39 57 3c c3 3c
       -0.011934623 -0.021893995 0.00043033148 0.023832483
000210 cf 8c c1 3b 57 c3 3e bb c6 c0 0f 3d bb b9 fa bc
       0.0059066783 -0.002910813 0.035095952 -0.030606141
000220 2f 54 12 3d aa cd bf 3c 93 6a ac bc 59 1f a7 3a
       0.035724815 0.023413498 -0.021046912 0.0012750431
000230 ce 12 a5 3c ae bf 99 3b f4 25 89 3b 41 d2 e7 bc
       0.020150568 0.0046920395 0.0041854326 -0.028298499
000240 a8 20 11 3d 47 09 9a bc 78 60 65 bc 77 77 33 bb
       0.035431534 -0.018803252 -0.014000051 -0.002738444
000250 93 9d d0 bc 44 36 55 bb af 82 6c bb 06 89 8c 3c
       -0.025465762 -0.0032533566 -0.0036088636 0.017155182
000260 cb 14 91 bc 1b c9 0e 3c a3 e4 7a 3c f2 da 0a bd
       -0.01771011 0.0087149395 0.0153133 -0.03390021
000270 7d 1f b7 3b 99 8a 01 bc 42 fe 2e bb 0d 14 c7 bb
       0.0055884705 -0.007906579 -0.0026701842 -0.0060753883
000280 b9 65 7f bc 06 71 7a 3b 2b bf fe bb ed a5 84 3c
       -0.015588217 0.003821434 -0.007774254 0.0161924
000290 9e 54 8e bb eb f3 7e ba a7 ad 5f bb 2a 01 d1 3c
       -0.0043435832 -0.00097256777 -0.0034130604 0.02551325
0002a0 b7 e3 ec 3c 54 5f 49 3c f2 82 05 3c 4b 79 ac bc
       0.028917177 0.012290794 0.008148896 -0.02105393
0002b0 ac 1e 75 3c 10 ae 38 3d 7b 04 da 3b 0b 39 0e bd
       0.014960926 0.045087874 0.006653366 -0.03472237
0002c0 04 4d af bc 5b 92 1d 3c cb 89 36 bc 00 09 04 3c
       -0.021399029 0.009617413 -0.011141251 0.008058786
0002d0 df 18 02 3d 7b 0c a7 bc 98 c4 f6 bc 8c 90 ee ba
       0.031762 -0.020391693 -0.03012304 -0.0018201037
0002e0 20 0c a6 3c 0b 54 cf 3c 6e 60 ed bb 99 2a 4e bc
       0.020269454 0.02530863 -0.0072441613 -0.012583398
0002f0 a4 f5 44 bc f9 bd 34 bc 3d 8a 87 bb 92 d8 40 3c
       -0.012021456 -0.011031621 -0.0041363523 0.011770384
000300 78 fb a3 3b 8f 4e 83 3b 59 7b d0 3c 10 11 06 bc
       0.0050043426 0.0040071676 0.025449442 -0.008182779
000310 3d 5b e1 3c 18 64 27 3d f9 9a b2 3c 9e 64 7b 3c
       0.027509326 0.04086694 0.021802412 0.015343813
000320 26 52 36 3c c4 6b 42 3c f5 3e 37 3d 40 45 7e 3c
       0.011127984 0.011866514 0.044737775 0.01551944
000330 bd 38 06 bd c9 63 ce ba 3e 4e 35 bc e4 a3 96 3b
       -0.032768954 -0.0015746291 -0.011066018 0.004597174
000340 1a d5 88 3c 70 f3 03 3a ad 55 9f bc b3 e4 2b bc
       0.016703177 0.00050335284 -0.019450033 -0.010491538
000350 1e 93 e3 bb dd 67 cd 3c cf 38 93 bb 25 d2 83 bc
       -0.006945028 0.02507394 -0.004492856 -0.016091416
000360 4b 13 6b bd b9 cf 02 bc aa 67 5d bb a2 1f 22 3d
       -0.057391446 -0.007984095 -0.0033783712 0.03958095
000370 2b 9d 48 bc d6 49 06 3d 00 69 e4 3c 60 1a 99 bb
       -0.012244503 0.03278526 0.0278821 -0.0046723336
000380 d2 8b d7 bb a5 71 ef 3c ee 9f ce bb 7d 18 f2 bc
       -0.006577947 0.029228995 -0.006305686 -0.029552693
000390 cf de 0c 3a a2 51 df 3c 50 73 f0 bc d9 60 99 bc
       0.0005373777 0.027260605 -0.02935186 -0.018722938
0003a0 f4 75 12 bc 49 53 3b 3c 8c 52 f3 bc a5 19 c8 ba
       -0.008939255 0.011433431 -0.029702447 -0.0015266432
0003b0 be ff 2c bd 29 2d 5b 3b ea 06 ac bc 58 80 e7 3c
       -0.042236082 0.0033443666 -0.02099939 0.028259441
0003c0 41 8e 25 bc d6 9c a0 bc b8 ad 03 bd af c0 68 bc
       -0.010104717 -0.019606035 -0.032148093 -0.014206096
0003d0 b5 07 02 bd 85 4f a5 bc 26 8d 9a 3c 33 56 14 bc
       -0.03174563 -0.02017952 0.018866133 -0.009053755
0003e0 cd 47 00 bd 2b 79 34 bb f4 2e 58 bd 75 ee 45 3d
       -0.031318475 -0.0027538042 -0.052779153 0.048323113
0003f0 e9 c5 76 bc 58 9a 6b bc 29 17 58 3c dc 5a 63 3b
       -0.015061834 -0.01438006 0.013189116 0.0034691608

bert.encoder.layer.0.attention.self.query.bias f4 [16]
000000 00 00 00 00 00 00 00 00 00 00 00 00 00 00 00 00
       0.0 0.0 0.0 0.0
000010 00 00 00 00 00 00 00 00 00 00 00 00 00 00 00 00
       0.0 0.0 0.0 0.0
000020 00 00 00 00 00 00 00 00 00 00 00 00 00 00 00 00
       0.0 0.0 0.0 0.0
000030 00 00 00 00 00 00 00 00 00 00 00 00 00 00 00 00
       0.0 0.0 0.0 0.0

bert.encoder.layer.0.attention.self.key.weight f4 [16, 16]
000000 a7 ea f0 bc 33 0f 94 3c cf 57 dd bc e2 47 8f 3c
       -0.029408766 0.018073654 -0.02701941 0.017490331
000010 c9 43 ca 3a 94 52 fd 3b 92 2c c1 bb 27 ee 43 3c
       0.0015431579 0.0077307913 -0.005895206 0.011958635
000020 0c dd cf bc 72 57 70 bc 5d b6 2c 3c a9 5e ff 3c
       -0.025373958 -0.014669286 0.010541526 0.031173067
000030 70 1e 4d 3d 1e 20 89 3c 1e 56 6c 3c 78 d6 e5 3c
       0.050077856 0.016738947 0.014424829 0.028056368
000040 8c d9 90 3c 58 1a 90 3c cb 8a 60 bc db 51 9d 3c
       0.01768186 0.017590687 -0.013704966 0.01920407
000050 35 08 c3 bc d3 40 28 bc e7 5e b6 bb 97 81 9d bb
       -0.023807624 -0.010269362 -0.0055655125 -0.004806708
000060 0b a4 19 3c d9 1b bd 3b b7 eb 61 3a 90 8e b0 3b
       0.00937749 0.005771142 0.0008618193 0.0053880885
000070 d5 63 5a 3b 78 2b 09 3d 2a 95 ae 3c 80 0e 53 3c
       0.0033323665 0.03348872 0.021311361 0.012881875
000080 ff 5f 12 3c f0 a0 17 3c a2 e8 86 3c b7 dd 4a bb
       0.00893402 0.009254679 0.01646835 -0.0030954906
000090 8b 0d cd bc 7e 35 3a ba e6 95 05 3b 2d a0 a2 bc
       -0.025030872 -0.0007103308 0.0020383536 -0.019851768
0000a0 29 bc d9 3b 62 b6 d3 bc cf 13 8b bc 3d dc ac bb
       0.006644745 -0.025843803 -0.016977219 -0.005275278
0000b0 9d e9 1b bc 8f fc 2f 3c 02 d9 de ba 0f 03 19 3b
       -0.009516147 0.010741367 -0.0017001929 0.002334777
0000c0 0d 72 80 ba 1a da 84 bc a3 5e 83 bc e3 fe 92 bb
       -0.0009799615 -0.01621728 -0.016036337 -0.0044859513
0000d0 ea 36 dc 3a 57 29 77 3c 40 7a d4 3c dc 57 bd bc
       0.0016801034 0.01508554 0.0259372 -0.023113184
0000e0 f2 67 40 3c f0 5b 9f 3c 79 f9 fe 3c a1 3c 46 3c
       0.0117435325 0.019453019 0.031124817 0.012099416
0000f0 09 d5 a6 bc ad 72 9f 3a aa ce 26 bc 8d d7 13 3c
       -0.020365255 0.0012164913 -0.0101811085 0.009023559
000100 0d ff c0 ba 1b 27 7e bc fe 41 3e 3d c3 82 8e bb
       -0.0014724449 -0.015512253 0.046449654 -0.004349084
000110 1e b7 05 3d 4a 29 73 bc 6b 00 76 3b 38 e2 47 bd
       0.032645337 -0.014841387 0.003753687 -0.048799723
000120 fe 3c 35 bd b1 66 0c 3d 7c 69 bd 3c 72 f3 77 bc
       -0.04424762 0.03427762 0.023121588 -0.0151337255
000130 cc 58 f1 bc b5 02 ea bc b5 9b 41 3c 6e 9b a1 3b
       -0.029461287 -0.028565744 0.011816909 0.0049318587
000140 38 b0 c5 bc 98 2e a6 3c e4 40 4b 3d 59 3f 4b 3b
       -0.02413188 0.02028589 0.04962243 0.00310131
000150 3d 02 67 3b 5f 37 8b 3b 5d 9e 29 3d 10 1c 7b 3c
       0.0035249137 0.004248544 0.041410793 0.015326515
000160 e7 fe 03 bd d2 07 94 3c 25 7b c4 bb ea 0e e1 3c
       -0.032225516 0.018070135 -0.0059961253 0.027472932
000170 b9 d6 89 bb 36 97 03 3d bc 1f 99 bc 96 d1 11 bd
       -0.004206505 0.032126628 -0.01869189 -0.035600267
000180 dd 57 63 3c ab 6c 1a bd 9b c6 cf 3b 40 3a d7 ba
       0.013875929 -0.03770129 0.0063408143 -0.0016420558
000190 40 04 f7 3c 69 dc 50 3c a9 e9 80 bb 58 0a bd bb
       0.030153394 0.012747862 -0.0039341045 -0.0057690553
0001a0 8f 8b b6 3c 02 1f 07 3d 4f 42 ba 3c a6 bd c5 3b
       0.022283344 0.032988556 0.022736697 0.0060345707
0001b0 ac 09 52 3c 46 9f 32 bc 96 94 91 3b 96 20 2b 3c
       0.012819689 -0.010902232 0.0044427617 0.010444781
0001c0 ad aa b8 3a 80 af 8b bb 3c b9 a9 bc 30 d9 d6 3b
       0.0014088951 -0.0042628646 -0.02071821 0.0065566525
0001d0 8a 55 37 3d 54 54 c2 bc af 28 6c 3c 0a 0b 0b 3d
       0.04475931 -0.023721851 0.014413997 0.033946075
0001e0 f7 9a e4 3b 75 ac 9a bc 6f 9d 86 3c 62 84 b4 bc
       0.006976481 -0.018881062 0.016432492 -0.022035781
0001f0 9b c9 3e 3c 5b e9 89 bc 5c d0 b2 3c a1 bf 69 bc
       0.011644746 -0.016834905 0.02182787 -0.014266879
000200 03 f0 1f bc fb b9 83 bc d2 19 46 3c ff 2e 14 3b
       -0.009761813 -0.016079893 0.012091117 0.002261102
000210 9d e5 be bb 82 59 70 bc 92 bd 82 3c 18 0e 4d bb
       -0.005825712 -0.014669778 0.015959535 -0.0031288918
000220 ad e8 01 3d 74 9f 03 3d e7 28 1d bd 27 18 5a bc
       0.031716038 0.03213449 -0.038369086 -0.013311422
000230 1d c7 9b 3c 1b a0 06 bb b6 d9 29 3c 14 44 92 ba
       0.019015843 -0.0020542208 0.010366848 -0.0011159205
000240 f6 93 0f 3d 64 e4 9a 3c 45 6f 6e 3b 27 f7 f2 bc
       0.035053216 0.018907733 0.003638224 -0.029658867
000250 c1 9e 16 3c b9 7a 31 3d 67 ee 81 bc 78 71 8c bc
       0.009193123 0.043329928 -0.01586075 -0.01714395
000260 64 91 c1 ba 97 85 93 bb 38 db 39 3c bb fc bf 3b
       -0.0014768061 -0.004502009 0.01134377 0.0058589852
000270 e0 b6 dc bb 57 81 dc 3b ca 87 b5 bc 0f a7 46 3a
       -0.0067356676 0.0067292857 -0.022159476 0.0007577994
000280 ee ef 29 3d 7c bc 37 bc 60 53 2a 3c a5 12 ee 3c
       0.04148858 -0.011214372 0.010395855 0.029061625
000290 82 b1 23 bd 27 ee 05 bd 0c db df 3c ab 8a a4 bc
       -0.039964207 -0.032697823 0.02732613 -0.020085653
0002a0 eb 6e 2a bc ca e0 75 bc b8 21 1d 3c 84 fe 27 3c
       -0.0104024215 -0.015007207 0.009590559 0.010253552
0002b0 d4 fa 5d 3c 32 8b 58 3a eb 11 66 3b 0a 83 cf bc
       0.013548572 0.0008260488 0.0035105895 -0.025331039
0002c0 fb f2 03 3b 2a bd b0 3c 5e 9d 0b 3d bd 0c b7 bc
       0.0020133841 0.021574575 0.034085624 -0.022344941
0002d0 89 5f 1f 3c c2 75 a9 bc d9 c0 87 bc fb a3 86 bc
       0.009727367 -0.020686034 -0.01657145 -0.016435614
0002e0 9c ec 81 bc ca a8 cb bc 90 90 cc 3c dd 78 06 3c
       -0.015859894 -0.024860758 0.024971277 0.008207527
0002f0 66 a1 29 bd f9 d2 63 bc 35 54 68 bc fd 1d cc 3c
       -0.041413687 -0.01390528 -0.014180233 0.024916643
000300 29 91 99 bc 36 66 92 3c 95 93 65 bc 02 03 48 3d
       -0.018745976 0.017871004 -0.014012237 0.048830993
000310 a9 14 68 3c 2b ee 02 b9 fd 2d 6c 3c 6b e1 da 3b
       0.014165082 -0.0001248649 0.014415261 0.006679704
000320 84 a6 48 bb d5 16 78 bc f8 9c 84 3b 69 0f 5f bc
       -0.003061683 -0.015142162 0.0040470324 -0.013614514
000330 97 39 9a bc a1 80 ad 3b 48 ce 9c bc e7 18 58 bd
       -0.01882629 0.005294875 -0.019141331 -0.052758124
000340 a7 a6 c4 3b a0 65 93 bb 0b db 2c 3d c9 74 e8 3c
       0.006001312 -0.0044981986 0.042201083 0.028376
000350 07 2b 1f 3d dd 4c 93 bc b9 94 df bb 27 fe 5d 3d
       0.038859393 -0.017980987 -0.006823149 0.054197457
000360 38 47 a4 bb 75 33 e2 3c 2b 84 a7 3c 65 7f 48 bc
       -0.0050133727 0.027612427 0.020448765 -0.0122374045
000370 39 ef a6 3b 30 be 48 3b 5c f5 eb 3c 0f 1f 9b bc
       0.0050944355 0.0030630939 0.02880352 -0.018935708
000380 0b c0 3d bd fd 35 79 bb f6 0a a7 3c 59 a1 28 3c
       -0.046325725 -0.0038026564 0.020390969 0.0102923745
000390 75 97 de 3c 59 0c 75 bc f9 cc 08 3c bf fa 04 3d
       0.02717183 -0.014956557 0.008349651 0.032465693
0003a0 61 ac 83 3c 95 55 df 3c 38 ef 39 bd ae b1 29 bd
       0.016073408 0.027262488 -0.045394152 -0.041429214
0003b0 ca 73 04 bd a7 ec 26 3c 5e d2 1c bc 73 31 a7 3c
       -0.032336988 0.010188258 -0.00957164 0.020409321
0003c0 15 66 32 3b a9 12 2c 3d 33 26 f3 bb 0e ff bd 3b
       0.002722149 0.042009983 -0.007420325 0.005798227
0003d0 e6 b2 f0 bb a6 36 65 3c 29 4b 23 3c 02 d7 4f 3c
       -0.007345545 0.01399008 0.00996665 0.012685539
0003e0 14 bd 96 39 85 a5 30 bc 26 e1 39 bd a7 6c 37 bc
       0.00028751104 -0.01078165 -0.045380734 -0.011195338
0003f0 3e f2 ec bc 83 f4 ff 3c c7 ea 4e ba d5 ae 1a bc
       -0.028924104 0.031244522 -0.0007893261 -0.009441097

bert.encoder.layer.0.attention.self.key.bias f4 [16]
000000 00 00 00 00 00 00 00 00 00 00 00 00 00 00 00 00
       0.0 0.0 0.0 0.0
000010 00 00 00 00 00 00 00 00 00 00 00 00 00 00 00 00
       0.0 0.0 0.0 0.0
000020 00 00 00 00 00 00 00 00 00 00 00 00 00 00 00 00
       0.0 0.0 0.0 0.0
000030 00 00 00 00 00 00 00 00 00 00 00 00 00 00 00 00
       0.0 0.0 0.0 0.0

bert.encoder.layer.0.attention.self.value.weight f4 [16, 16]
000000 0b 6c af bb 4a 3a 11 3b d3 0d c1 3c 97 fb 8e bc
       -0.005353456 0.0022159987 0.023566162 -0.017453952
000010 73 da 2a b9 db 24 c9 bc 35 9d ee bc 7f 43 8c b7
       -0.00016293842 -0.024553707 -0.029127697 -1.672073e-05
000020 18 4e be bc 6f 53 3a 3c ae 74 18 ba 3b 9b 5c bc
       -0.023230597 0.011372431 -0.00058157265 -0.013464744
000030 92 fb d8 bb d0 c8 2a 3c 82 0a 73 3c 80 22 36 3d
       -0.0066217864 0.010423854 0.014834048 0.044466496
000040 8c b2 5b bc 2a 58 c7 3c 20 8b ae bc d4 01 e9 bc
       -0.013409268 0.024334032 -0.021306574 -0.028443255
000050 4f e3 8f 3c 88 f9 0c bb 13 26 ae bb b3 9b 49 3b
       0.017564444 -0.0021511037 -0.0053145974 0.003076297
000060 a7 25 b6 3c b6 3f 0f bc 0b c3 02 bc 58 e4 02 3b
       0.02223475 -0.008743217 -0.007981072 0.001997253
000070 6a 4f 1a 3d 2e 18 5a bd 94 6f 9d 3b b9 da c9 ba
       0.03767339 -0.053245716 0.004804561 -0.0015400267
000080 67 33 ae 3c ae 1c a7 39 59 1d 33 3d 5b 70 ba bb
       0.021264745 0.0003187409 0.04372916 -0.0056896633
000090 0e 17 13 bc 42 1b bd 3c 0f 7b 2b 3c d7 8f 46 3c
       -0.008977665 0.023084287 0.010466351 0.012119255
0000a0 5e c7 0c 3d c9 65 07 bd 0e dd d7 39 8a 85 3b 3d
       0.03436982 -0.033056054 0.00041172694 0.04578165
0000b0 1d fb 75 bc 07 68 18 bc 2a 89 32 3c 0a bc 6b 3b
       -0.015013483 -0.009302146 0.01089696 0.0035970234
0000c0 cb 4f 90 bc 42 9c 73 bd 69 14 85 bc 79 20 29 3c
       -0.017616173 -0.05947519 -0.016245084 0.0103226835
0000d0 39 59 3b bd 02 38 9b 3b d2 7c 59 bc 45 0d ad bc
       -0.045739386 0.0047369013 -0.013274388 -0.021124491
0000e0 20 77 2b 3c 64 a6 e1 3c 8b 88 f5 ba 98 d6 c5 3c
       0.010465413 0.027545162 -0.001873271 0.024150178
0000f0 f7 e6 22 bc 1e 7a 15 bd a2 10 32 3c 54 05 20 bd
       -0.009942762 -0.036493413 0.010868223 -0.03906758
000100 eb c3 34 3d 65 28 fe 3c 6f 36 11 3a 29 22 31 3c
       0.044132154 0.031025121 0.0005539422 0.010811367
000110 70 57 02 3c f6 a5 9e 3c 90 9e 0a bc ca fc 17 bd
       0.007955417 0.019366246 -0.008460656 -0.037106313
000120 5c 5e 7b 3c 98 c3 4f bc 60 7e 8b 3b d4 ad b0 bc
       0.015342321 -0.0126809105 0.0042570084 -0.021567263
000130 e9 2b f8 bc 82 9d bb 3c 34 6e 34 3c 8e ea 6d bc
       -0.030294375 0.022902254 0.011012603 -0.014521254
000140 fd 88 01 bc 22 a5 2b ba 3e 14 93 bc 5d cc 8b 3c
       -0.007906196 -0.0006547739 -0.017953988 0.017065221
000150 ce 1b c3 3c 49 26 05 bb 3e 5d 6a 3b 02 5c c0 bc
       0.02381697 -0.002031701 0.0035761143 -0.023481373
000160 54 44 7c 3c 69 cb 98 ba fc 44 d6 3c 05 ef 0d bd
       0.01539715 -0.0011657301 0.026155941 -0.034651775
000170 1c 28 3b bc 8a e7 aa 3a b0 2c 86 bc 29 7d 8d 3c
       -0.011423137 0.0013038975 -0.01637873 0.017271595
000180 72 ee 44 bc b6 98 95 bc 0a 51 0c bc 95 20 d6 bc
       -0.01201974 -0.018261295 -0.008564243 -0.026138583
000190 2e 66 1a bb 25 e6 d1 bc f5 4a d1 3c 29 07 ad 3c
       -0.002355944 -0.025622437 0.025548438 0.021121578
0001a0 82 be d9 bc a9 89 54 bc 97 65 18 bd 8b c0 11 bd
       -0.026580099 -0.012972274 -0.03720626 -0.035584014
0001b0 4a 5e 2d 3c 7b 6c cb 3c 99 a9 f7 3c 4f b4 15 bd
       0.010581562 0.024832001 0.030232238 -0.03654891
0001c0 70 59 21 bd 54 f0 23 bb 47 19 6e 3d 0b 59 6b 3b
       -0.039391935 -0.0025015073 0.058129575 0.0035911228
0001d0 a9 77 e9 bb 71 0b 0a bc 9c 41 5a 3c 9d 24 88 3b
       -0.0071248603 -0.008425579 0.013321307 0.0041547553
0001e0 25 38 25 bd 2d d1 17 3c 1d 91 58 3d a7 6d e7 ba
       -0.040336747 0.00926618 0.052872766 -0.001765658
0001f0 9d 6e ae bc f7 54 9f bc a0 da e2 3b c7 a4 99 3c
       -0.021292979 -0.019449694 0.006923035 0.01875533
000200 e7 df 62 b8 ec 42 df bc 2c d8 0e 3c af fe d2 bc
       -5.4091124e-05 -0.02725359 0.008718532 -0.025756208
000210 5f cd 07 3c 36 4e 18 bd aa 1b 5f 3b dd 8e 05 38
       0.00828871 -0.037183963 0.0034043589 3.1842723e-05
000220 c6 02 8c 3b 19 f7 0a 3c 9b e8 be b9 e4 df bd 3b
       0.0042727916 0.008481764 -0.0003641293 0.005794512
000230 c9 b4 09 b9 f2 17 b4 3b 0a 7b 9a bc 02 c3 c7 bb
       -0.00013132686 0.0054960186 -0.018857498 -0.006096245
000240 80 53 85 3c e1 91 e1 bb 32 45 ce bb a2 8c 9c bc
       0.016275167 -0.006883845 -0.00629487 -0.019110028
000250 75 34 39 3c db ff 25 bd b8 a2 d9 3b 30 ad 6f bc
       0.011304011 -0.040527206 0.006641712 -0.014628693
000260 b0 44 aa bc ae a9 12 3d e2 51 1b bb 42 f9 ed bb
       -0.020784706 0.03580635 -0.002369993 -0.00726238
000270 22 5c f9 3b 61 76 a1 ba e7 fe 19 bc 7d 3f 86 3c
       0.00760986 -0.0012318605 -0.009399152 0.016387695
000280 2e e3 53 bb a6 23 81 bb d8 45 e0 bc 31 95 15 bd
       -0.0032331455 -0.003941017 -0.027377054 -0.036519233
000290 07 28 da 3a 3b 96 1d bd 1e 95 40 3d db 2f c6 bc
       0.0016644009 -0.03847335 0.04701721 -0.024192741
0002a0 10 c7 aa bc ae fe de bc 73 0c cc 3c a1 c5 67 3c
       -0.020846874 -0.02722105 0.02490828 0.0141462395
0002b0 d9 97 19 3c 67 0f b6 bc 5c db 63 3b fd ad da bc
       0.009374582 -0.022224141 0.00347682 -0.026694292
0002c0 46 b9 4f bb 65 c5 e4 3b b0 e4 97 3c 90 4e 69 3b
       -0.0031696125 0.006981539 0.018541664 0.0035599805
0002d0 60 86 ea bb 14 45 32 3c e9 d4 f2 bc dc 25 8b 3a
       -0.007157132 0.010880727 -0.02964254 0.0010616141
0002e0 a7 22 38 3c a9 d1 66 3c f3 59 04 3d be a9 dd 3b
       0.0112387305 0.014088073 0.032312345 0.0067646196
0002f0 e0 99 d7 bc 82 9a 3e bb 74 25 65 3c b0 7b 9c bc
       -0.02631849 -0.0029083793 0.01398598 -0.019101948
000300 01 a8 60 bb 09 fd 61 bc 58 bc d5 bc f4 2d fb bb
       -0.0034279826 -0.013793238 -0.026090786 -0.00766539
000310 fe fd f3 bc 8c 4d db 3c 1f b2 10 bc 8d a5 b5 3c
       -0.029784199 0.026770376 -0.00883153 0.022173667
000320 fd 6a 00 bc 53 37 b0 bc 1c c8 84 3b 42 e6 0a bb
       -0.007838008 -0.021510756 0.004052175 -0.0021194373
000330 44 ab c7 bc 9d 7f d6 b9 d1 03 80 3d 21 6c 7a 3c
       -0.024373658 -0.0004091234 0.06250728 0.015284569
000340 be 1a 6f bb f4 4c 27 3b a3 45 eb 3a c7 4a d8 bc
       -0.0036484445 0.0025528045 0.001794983 -0.026402844
000350 c5 b2 35 3b 10 46 de 3b 0e 20 39 3d d0 0d ce 3b
       0.0027724963 0.0067832544 0.045196585 0.0062882677
000360 0d 72 4a 3d c6 1f 2f 3c 97 05 e0 3c af fc 00 bc
       0.049425174 0.010688728 0.027346415 -0.007872744
000370 44 de 3e bb c2 a8 83 3c 4e 60 6e bc 0c 9b 90 bc
       -0.002912418 0.016071681 -0.014549328 -0.017652057
000380 eb 72 23 bc 9d 53 37 bb 7d 62 0a bb 15 b8 53 3b
       -0.009976129 -0.0027973421 -0.0021115832 0.0032305766
000390 37 ce a1 3c 4a 12 bc bb 91 d6 88 bc cd b9 b8 bb
       0.019751651 -0.005739485 -0.016703876 -0.0056373836
0003a0 21 38 90 3c bf 06 19 bb 96 2c a8 3c 92 f9 b7 bc
       0.01760489 -0.0023349968 0.020529073 -0.022457872
0003b0 47 4a 1e 3d 3d b8 b3 3c 60 e9 00 3d f4 8e 9a bc
       0.038645055 0.021938438 0.031472564 -0.018866993
0003c0 60 1b cd 3c c5 e5 c6 3c a2 08 9c b7 e1 95 cf bc
       0.025037467 0.024279485 -1.860067e-05 -0.025340023
0003d0 82 e4 bb 3b 8a b8 71 3c e9 90 f4 bc 43 e4 9c bc
       0.0057340274 0.01475347 -0.029854255 -0.019151812
0003e0 d5 c9 43 bb 38 6d 94 3b 59 4d c6 3b d4 32 e2 b9
       -0.002987494 0.0045296215 0.006051701 -0.0004314395
0003f0 57 b3 ff 3c 1c 59 4b 3b 02 32 85 bc 52 21 6f 3a
       0.031213446 0.0031028455 -0.016259197 0.00091220916

bert.encoder.layer.0.attention.self.value.bias f4 [16]
000000 00 00 00 00 00 00 00 00 00 00 00 00 00 00 00 00
       0.0 0.0 0.0 0.0
000010 00 00 00 00 00 00 00 00 00 00 00 00 00 00 00 00
       0.0 0.0 0.0 0.0
000020 00 00 00 00 00 00 00 00 00 00 00 00 00 00 00 00
       0.0 0.0 0.0 0.0
000030 00 00 00 00 00 00 00 00 00 00 00 00 00 00 00 00
       0.0 0.0 0.0 0.0

bert.encoder.layer.0.attention.output.dense.weight f4 [16, 16]
000000 93 ff cc 3c f4 cd bd 3a cd b2 05 bd b8 fe c0 3b
       0.025024211 0.0014480934 -0.03264122 0.00588974
000010 24 d1 cd 3c 12 71 08 bc 35 bd f4 ba 58 1d ff 3c
       0.02512414 -0.008327739 -0.0018672111 0.031141922
000020 09 35 48 3c ab ee 0f 3c 47 fb 93 3c bb fc a7 3c
       0.012219676 0.00878493 0.018064154 0.020506253
000030 8f 32 3c 3b f3 b6 74 3c d1 3a 88 bc df aa 92 bd
       0.0028716659 0.014936197 -0.016629608 -0.07161497
000040 23 06 72 bc 39 08 a1 3c 5d 40 af 3b a0 91 29 bd
       -0.014771971 0.019657241 0.005348249 -0.041398644
000050 6d 43 b5 bc c1 5a b4 bc 04 98 8d bc bd 26 50 3a
       -0.022126878 -0.022015931 -0.0172844 0.0007940343
000060 a9 24 55 3b 29 9b 0d bb 6a f5 c0 3a bc 6d af 3c
       0.0032523072 -0.0021607375 0.0014721577 0.02141463
000070 7c c4 68 3c 6f 40 14 bc 7d a9 d4 3c b8 5d 3c 3c
       0.014207002 -0.009048565 0.025959725 0.011496954
000080 65 03 1c 3c 57 c1 84 3c d8 f7 db bb 42 c1 f3 ba
       0.009522294 0.016205473 -0.006712895 -0.0018597024
000090 c2 f2 38 3d a3 16 ff 3c 4d 14 80 3b 6b 75 2f 3c
       0.045153387 0.031138724 0.00390867 0.010709147
0000a0 c2 4a 2a 3d 04 75 86 3c 6e 28 e5 bb e2 a2 d7 3b
       0.0415752 0.01641322 -0.006993345 0.0065806964
0000b0 c7 fc ac bb 7e 08 20 bc 58 35 58 bc 8a 3c 0c bd
       -0.005279157 -0.00976765 -0.013196312 -0.034237422
0000c0 e6 9e 78 bc 9f ae 9d b9 ce d5 3c 3a 26 0d d9 bc
       -0.015174603 -0.00030075476 0.000720349 -0.026495527
0000d0 af 39 2d 3b 87 06 28 bd 30 8f e6 3c 18 92 fb 3b
       0.0026432087 -0.04102185 0.028144449 0.007677328
0000e0 c4 34 83 bc f3 6d 8c bc 2d 6f bb bc c2 c0 82 3c
       -0.016016372 -0.017142272 -0.022880161 0.015961055
0000f0 bf 6c 8e ba 18 fd 3e 3c 4a 39 b8 39 e0 55 d7 3c
       -0.0010866149 0.011657022 0.00035137899 0.026286066
000100 01 d7 c3 3c 3f 18 94 3c c7 5a 56 3c f8 8b 43 3b
       0.023906233 0.018077968 0.013083166 0.0029838067
000110 c7 4f 35 bb 4a 39 fd 3c f4 bb 8e 3c 6e ea 10 3c
       -0.002766596 0.030911107 0.017423607 0.008844955
000120 87 2b 1f 3d 92 39 6b bc ac d3 dc 3c 42 a4 2b 3c
       0.03885987 -0.014356988 0.026956402 0.010476174
000130 90 a3 88 bc a9 16 af bc cb 60 2d 3c f8 7b 35 bb
       -0.016679555 -0.02137311 0.010582159 -0.00276923
000140 14 67 99 bb 79 66 0f 3c e7 93 cc bc 81 73 28 bc
       -0.0046814773 0.008752459 -0.02497287 -0.0102814445
000150 5d f3 5a 3c 54 10 9f 3c 04 91 db 3c 10 29 b5 b9
       0.013363686 0.019416966 0.026802547 -0.00034553604
000160 6a 15 a1 3c 70 68 ad 3c 4e 37 84 3c 54 10 28 bc
       0.019663531 0.021167964 0.016139653 -0.010257799
000170 f3 b1 fb bb 2a e4 6a 3c aa 05 25 3c e9 3f c7 3c
       -0.0076811253 0.014336625 0.010072151 0.024322467
000180 4b 7b a7 bc dc 26 81 39 05 ec 8b 3c 0a 0f 93 bc
       -0.020444533 0.0002463375 0.017080316 -0.017951507
000190 b8 61 0c 3c 3a 0f 1a 3d 14 9f 96 bb 62 d8 aa bb
       0.00856822 0.037612177 -0.0045966003 -0.005213783
0001a0 89 16 1d 3c 6b f7 52 3c 4a ad cd bb b9 0d b7 3c
       0.009587892 0.012876372 -0.006276761 0.02234541
0001b0 fb c4 1f bb eb 74 27 bb 70 04 17 3d 37 6e 16 bc
       -0.0024378884 -0.0025551866 0.036869466 -0.009181551
0001c0 2d 5e 91 3c 02 61 75 3b b7 c0 83 ba 8e e3 d0 bb
       0.017745102 0.0037441854 -0.001005194 -0.006374783
0001d0 fe 3c b1 3b f8 35 77 3c c2 9d 78 3c 27 b1 6d 3c
       0.005408882 0.015088551 0.015174331 0.014507568
0001e0 ac 61 55 bc 7f 58 14 bd 9d 7c 51 bb 89 31 6c bb
       -0.013023775 -0.03621721 -0.0031965144 -0.0036040267
0001f0 d4 95 20 3c a8 4e 96 3c 14 58 b6 bc d9 c7 d5 3a
       0.009801347 0.018348053 -0.022258796 0.001631017
000200 38 49 e0 3b 3b ec 2e 3c 24 20 0d bd 6c de 0c bd
       0.006844666 0.010676439 -0.03445448 -0.034391806
000210 af af 10 3a 5f 34 1d 3b b7 9a a0 3c 72 1c d1 3b
       0.0005519343 0.0023987514 0.019605024 0.006381565
000220 1e 0c 04 3c 65 7b 48 bb b9 83 3f bb e0 9d 07 bb
       0.00805953 -0.0030591127 -0.00292228 -0.0020693466
000230 36 71 0f ba a8 52 93 3c 84 9c e0 bb e7 e0 c4 bb
       -0.0005471887 0.01798375 -0.0068545956 -0.0060082558
000240 50 f4 8a 3c 95 5c 0b 3d 1a cb 0f 3c 73 11 23 bc
       0.0169622 0.03402384 0.0087764505 -0.009952891
000250 b0 b1 8e 3c 47 28 b7 3b d2 70 f4 ba a0 9d f0 3c
       0.017418712 0.005589518 -0.0018649346 0.029372036
000260 e9 d6 85 bc 1c b4 90 3c 13 37 2f bd b5 0e 3f bc
       -0.016337829 0.017664008 -0.042777132 -0.011661221
000270 b9 45 56 bc e0 8f 01 ba 94 3c 58 bb 14 dc c7 bb
       -0.013078147 -0.00049423985 -0.0032995092 -0.0060992334
000280 36 87 0c bd af 49 f2 3b ce f4 97 bc 94 72 27 3c
       -0.034308635 0.0073940377 -0.01854935 0.010220189
000290 4d 9b 9e 3c 2e e2 07 3c 0b fd b5 bc 89 50 20 bc
       0.019361163 0.0082936715 -0.022215387 -0.009784826
0002a0 44 43 04 bc 84 17 4b bd 9b 63 05 3c 22 1a 34 3b
       -0.008072678 -0.049582973 0.008141424 0.0027481397
0002b0 ae 18 0e 3d 94 d1 b3 3b 90 7a 3c 3b 72 34 99 3b
       0.034691505 0.00548763 0.0028759576 0.0046754414
0002c0 de e0 f3 3c be f8 06 3d fe 2a 7f 3c fb b9 05 bc
       0.029770311 0.032952063 0.015574215 -0.008162017
0002d0 42 f0 9b 3c 24 5c d4 3c 3d fa 33 bc 9d 68 0a ba
       0.019035462 0.025922842 -0.010984954 -0.0005279871
0002e0 32 19 60 3b 1b cc c8 bc 0c c2 f6 3a 1b e0 98 bc
       0.0034194705 -0.024511388 0.0018826141 -0.01866155
0002f0 a4 b2 64 3b 2b eb 44 3a 2b 25 04 3d c9 3f 71 bc
       0.0034896517 0.00075118494 0.03226201 -0.01472468
000300 72 68 c4 bc 21 95 b5 bc 17 33 c7 bc 67 97 3c 39
       -0.023975585 -0.022165837 -0.024316354 0.00017985479
000310 4f 57 15 3c d9 00 5f bc 88 75 0e 3d f4 61 80 3c
       0.009115054 -0.013611042 0.034780055 0.015671708
000320 70 30 37 bb ab f6 79 3c e5 b5 41 bc 3f a8 06 bd
       -0.0027952455 0.015256564 -0.011823152 -0.032875296
000330 b3 c3 35 3c 67 6a e3 3c c0 68 b1 bb 02 f0 1e 3c
       0.011094022 0.027760698 -0.0054140985 0.009700777
000340 38 b3 62 3c 73 74 c1 bc 6e 2d 1a 3c 98 7b 6b 3c
       0.013836674 -0.023615098 0.009410245 0.014372729
000350 f4 0b 74 3c de 0b 70 bc c3 a0 f2 3c d7 9b af bc
       0.014895428 -0.014651267 0.029617673 -0.021436615
000360 8c d2 4d 3c 64 d7 de 3c 44 3e 9e 3b 54 56 7e 3c
       0.012562405 0.027202316 0.0048292 0.015523512
000370 36 1c 1c bd 01 6d 50 bc 5c ea bf bc 1c df 6e 3c
       -0.03811284 -0.012721301 -0.023427181 0.014579561
000380 fb 71 ef 3c c9 6f 6a bb 53 9a 2c 3c 96 30 8b bc
       0.029229155 -0.0035772196 0.010534841 -0.016990941
000390 cc 3a 7c bc dd 8d a7 bc fb 5b 1f 3b ab 29 e6 3a
       -0.015394878 -0.020453388 0.00243163 0.0017560025
0003a0 e0 ed 22 bd 66 82 9e 3c 6f be 7d bb 75 77 ed 3c
       -0.039777637 0.019349288 -0.0038718244 0.028987626
0003b0 cc 8c 60 bc 21 ac 27 3c 0e cd 9b 3b be 8b d5 3c
       -0.013705444 0.01023391 0.004754669 0.02606761
0003c0 89 6e ab bb 81 33 d2 bb d2 84 00 3c d0 31 8c 3a
       -0.0052316827 -0.006414831 0.007844167 0.0010695998
0003d0 e0 a6 7c 3c d6 15 0a bc 8e 4b a1 3b 02 fc 1b bc
       0.0154206455 -0.008428058 0.004922337 -0.009520533
0003e0 91 97 08 3c 3b 4f 87 bc 7b e1 d4 bc cb 91 b2 3c
       0.0083369175 -0.016517272 -0.025986424 0.021798035
0003f0 96 32 0b bc dc f2 d0 3b 07 32 45 bd 45 95 af 3b
       -0.008495947 0.0063766073 -0.048143413 0.0053583705

bert.encoder.layer.0.attention.output.dense.bias f4 [16]
000000 00 00 00 00 00 00 00 00 00 00 00 00 00 00 00 00
       0.0 0.0 0.0 0.0
000010 00 00 00 00 00 00 00 00 00 00 00 00 00 00 00 00
       0.0 0.0 0.0 0.0
000020 00 00 00 00 00 00 00 00 00 00 00 00 00 00 00 00
       0.0 0.0 0.0 0.0
000030 00 00 00 00 00 00 00 00 00 00 00 00 00 00 00 00
       0.0 0.0 0.0 0.0

bert.encoder.layer.0.attention.output.LayerNorm.weight f4 [16]
000000 00 00 80 3f 00 00 80 3f 00 00 80 3f 00 00 80 3f
       1.0 1.0 1.0 1.0
000010 00 00 80 3f 00 00 80 3f 00 00 80 3f 00 00 80 3f
       1.0 1.0 1.0 1.0
000020 00 00 80 3f 00 00 80 3f 00 00 80 3f 00 00 80 3f
       1.0 1.0 1.0 1.0
000030 00 00 80 3f 00 00 80 3f 00 00 80 3f 00 00 80 3f
       1.0 1.0 1.0 1.0

bert.encoder.layer.0.attention.output.LayerNorm.bias f4 [16]
000000 00 00 00 00 00 00 00 00 00 00 00 00 00 00 00 00
       0.0 0.0 0.0 0.0
000010 00 00 00 00 00 00 00 00 00 00 00 00 00 00 00 00
       0.0 0.0 0.0 0.0
000020 00 00 00 00 00 00 00 00 00 00 00 00 00 00 00 00
       0.0 0.0 0.0 0.0
000030 00 00 00 00 00 00 00 00 00 00 00 00 00 00 00 00
       0.0 0.0 0.0 0.0
