tests/fixtures/bert/pytorch_model.bin (torch_old, 51912 bytes, 39 tensors)

embeddings.word_embeddings.weight f4 [121, 16]
000000 80 1b a3 3c 07 e2 17 bc 38 29 8e 3b cc 95 54 bc
       0.019910574 -0.009270198 0.0043384098 -0.0129751675
000010 35 fd de bc c1 fe 50 3b 24 1e 5d 3c 97 d8 90 bc
       -0.027220348 0.0031890126 0.013495956 -0.017681403
000020 52 12 23 3d d6 13 1f ba 89 1d 02 b9 04 5a d8 bc
       0.039812393 -0.00060683244 -0.00012408769 -0.02641011
000030 87 33 ad bb 4b 01 46 3c ea 57 33 3d 51 85 22 3d
       -0.0052856836 0.012085269 0.043785013 0.03967792
000040 ea bd 65 bc 62 16 f1 3c 1e 11 f7 ba 2e 61 1c bd
       -0.01402233 0.029429618 -0.0018849706 -0.038178615
000050 e1 d5 fb 3a d0 aa 02 bd 4b bc 3b bb f8 53 34 bc
       0.0019213521 -0.03190118 -0.0028646167 -0.011006348
000060 89 b5 0d bc e1 cc 87 bc 26 f2 07 3c 6e 37 b3 bc
       -0.008649238 -0.016577186 0.008297479 -0.021877017
000070 a0 a3 0d 3c ed 37 92 3c e9 3e be bc 7c 7f 8d bc
       0.008644968 0.017848933 -0.023223357 -0.017272703
000080 5b 5e 10 b9 6a 17 ae 3b 04 07 af 3c 45 29 58 bc
       -0.0001376806 0.00531285 0.02136565 -0.013193433
000090 0e 46 18 bc d4 df b8 3a 00 be 6b bc 07 76 94 bc
       -0.009294046 0.0014104792 -0.014388561 -0.018122686
0000a0 06 1a ca bb a6 25 a4 3c 32 0f 57 bc b6 1a a0 3c
       -0.006167653 0.020037483 -0.013126181 0.019543987
0000b0 4d 28 12 3b 4f 1d ae 3c 04 b8 01 bc 6d 05 ca 3b
       0.0022301853 0.02125421 -0.007917408 0.0061651976
0000c0 d4 c2 92 3c 3c 64 3b 3c 9d 28 04 3d 56 50 9f bc
       0.017915167 0.011437472 0.032265294 -0.019447487
0000d0 3e 07 19 bc cf 6c 4a 3b b8 0a 5b bd 5d 04 c0 bc
       -0.009340106 0.003088761 -0.05347702 -0.02343958
0000e0 a6 6f 27 3c cb ca ea 3c 68 57 97 b9 09 dd c8 bc
       0.01021949 0.028661152 -0.00028866087 -0.02451946
0000f0 e0 29 b5 3c 0c 24 a1 bc e4 c1 28 3c 33 81 47 3c
       0.022114694 -0.019670509 0.010300133 0.0121768
000100 70 c1 e8 bc 34 69 96 3c 1d a2 0f 3d 7d de d2 bb
       -0.02841255 0.018360712 0.035066713 -0.006435214
000110 c9 61 f5 bb f0 bc e4 3b a0 ba 2e ba b0 f5 66 bc
       -0.0074884635 0.006980531 -0.00066653825 -0.014096662
000120 b5 ee 54 bb aa 9e 69 3c e4 89 88 bb 52 6b 23 3c
       -0.0032490913 0.01425902 -0.0041668285 0.009974318
000130 c2 67 97 bc 39 61 fa bc a0 68 9b 3c 4b c7 d9 3a
       -0.018482093 -0.030563938 0.018970788 0.001661518
000140 ee 86 23 3b 2f 90 83 3c b2 49 be 3c f3 f8 f3 3b
       0.002495225 0.016059963 0.0232285 0.0074454485
000150 06 9b b8 bb 30 6c 7b bb 53 96 f2 ba 9c 0e ae bc
       -0.0056337146 -0.0038364045 -0.0018507935 -0.0212472
000160 75 b8 37 bc 25 24 cd bc 30 7b 48 bc a6 1b 61 3c
       -0.011213412 -0.02504165 -0.012236401 0.013739502
000170 7c 07 f6 bc b7 4d d5 bc e0 68 f3 3b 52 27 9f 3c
       -0.030032866 -0.026038034 0.0074282736 0.01942793
000180 72 74 0a bc e5 72 ad 3b 84 97 61 3c 4b 46 3d bd
       -0.008450614 0.0052932375 0.013769034 -0.046209615
000190 9c e1 71 3c b7 88 7d bc 49 45 f5 3b 2d 41 c4 3c
       0.014763262 -0.01547449 0.007485066 0.02395686
0001a0 66 9b da 3b bc 55 a4 3b 82 66 94 bb c4 49 b9 3b
       0.006671357 0.005015103 -0.0045288214 0.0056545455
0001b0 8e 9e 63 3d ef 9d be 3b 10 32 b4 bb c3 67 8b bb
       0.05557113 0.005817167 -0.005499132 -0.0042543127
0001c0 34 73 cb b8 1e fb b7 bc 40 ea 3a bd 01 7c 1c bd
       -9.7012526e-05 -0.02245861 -0.045633554 -0.038204197
0001d0 64 ee b5 39 24 10 13 bd 97 a6 04 bc e9 41 8c 3b
       0.00034700625 -0.035904065 -0.008096359 0.004280318
0001e0 2a 8b b0 bb 57 05 d1 bb 84 ed 03 bd d8 93 38 3d
       -0.0053876834 -0.0063788104 -0.032208934 0.04506287
0001f0 e4 d0 0a bc ab 8b ce 3c a8 c7 95 3c b6 22 8b 3c
       -0.008472655 0.025213083 0.01828368 0.016984325
000200 ae 2a aa bc a4 f8 0f 3b 21 13 38 bb e5 44 86 bc
       -0.020772304 0.002196827 -0.0028087574 -0.016390273
000210 65 cd 01 bc fb 25 06 bc d6 e7 8f 39 45 ba ea bb
       -0.007922505 -0.008187766 0.00027447817 -0.0071633183
000220 d5 3f 61 3b c7 62 96 3c e4 79 8c 3c 59 8d dc bc
       0.0034370322 0.018357648 0.017147966 -0.026922869
000230 e5 ef aa 3b 70 02 a3 bc a7 b2 3f 3d f5 3c 1e bd
       0.005216586 -0.019898623 0.046801236 -0.038632352
000240 f3 6e be 3c a5 d7 a9 bc 15 8c d7 3b d6 93 94 ba
       0.023246264 -0.02073271 0.0065779784 -0.0011335562
000250 3d 90 47 bc e4 b5 28 3c a5 d9 da bc 25 86 3c 3c
       -0.012180385 0.010297272 -0.02671511 0.011506592
000260 86 a2 ea bb 89 81 58 3d ea 63 c4 bc 10 b4 6e bb
       -0.0071604876 0.05285791 -0.023973424 -0.0036423244
000270 85 3a 39 bc 87 36 8d 3c bf b2 05 3c b3 40 2e 3c
       -0.011305456 0.017237915 0.008160292 0.010635543
000280 b4 cd cb bb 5d f7 7b bb 5e 58 b9 39 74 b5 dc bb
       -0.00621959 -0.0038447 0.00035351788 -0.006735498
000290 41 18 d1 3c 74 49 b0 3b 1d 18 85 bb 5b 40 0e 3b
       0.02552426 0.00537985 -0.0040617124 0.002170584
0002a0 b1 75 0e 3c a0 01 f9 3b 40 b7 5d 3c ee 1b 35 3a
       0.008695052 0.0075990707 0.01353246 0.0006908764
0002b0 6d f9 30 bc 65 ed 61 bc 77 13 f7 bc 7a 76 91 bc
       -0.010801655 -0.013789509 -0.030160649 -0.01775669
0002c0 22 69 36 3d 8d 82 ba 3c 00 f6 68 3c 1e 79 c1 3a
       0.044533856 0.02276733 0.014218807 0.0014760827
0002d0 39 98 18 3b d5 d6 de bb 79 50 75 bc 42 d0 f4 3c
       0.002328409 -0.0068005123 -0.014972799 0.029884461
0002e0 4d dc 39 3b 02 f0 14 bc a1 38 ea bb 56 97 05 3d
       0.002836007 -0.009090425 -0.007147864 0.03261503
0002f0 e4 44 a9 bb 8d ae 3e 3c d6 11 a4 3a 57 ec a4 3c
       -0.005165683 0.011638296 0.0012517523 0.020132227
000300 e6 e6 ad 3c c5 67 a6 bc cd 1a 27 bc cd cb bc 3c
       0.021228265 -0.020313153 -0.010199261 0.023046399
000310 94 23 5a 3b a9 8f 9c 3c 8b 14 7e 3b 39 e9 2b 3c
       0.0033285366 0.019111471 0.0038769569 0.010492616
000320 8b fd bc 3b 49 7b 8e bb 6b bf 30 bc b0 c2 8f bb
       0.0057675294 -0.004348193 -0.010787825 -0.004387222
000330 c1 c9 45 bb 14 36 9e bc 7f a1 9d bb 8b de 7b bb
       -0.003018007 -0.019312896 -0.0048105116 -0.0038432206
000340 8b 10 8b bc cd 77 88 bb 79 7d d1 bc 6a 9c 42 3c
       -0.016975662 -0.004164672 -0.025572525 0.011878112
000350 35 f2 ba bc 4d 34 3f bc 10 a2 04 bc 7a 76 9a bd
       -0.022820571 -0.011670184 -0.008095279 -0.07542129
000360 fc 88 03 bb 7a 74 a2 bc ae 24 3d 3b 27 f4 4c 3c
       -0.0020070663 -0.019830931 0.0028860974 0.012509382
000370 15 f3 b2 3b e7 37 39 3c 10 79 d2 ba d8 05 79 3c
       0.0054611065 0.011304832 -0.0016057808 0.015199147
000380 dd 70 c5 3b e6 50 02 3d ad a3 b3 bc cd b0 0e bc
       0.0060254172 0.031815432 -0.021928633 -0.008709145
000390 3b 7a d8 3c 39 59 c5 bb 4b 89 62 bd 26 f5 89 3c
       0.026425472 -0.006022599 -0.055306714 0.016840529
0003a0 7b 2d ba bb 55 23 b7 3b e3 96 ea ba 25 23 1a 3c
       -0.005681691 0.0055889287 -0.0017897751 0.009407793
0003b0 77 d6 95 3b a0 59 81 3a f2 55 bc bc 99 42 0a 3d
       0.0045726853 0.0009868629 -0.0229902 0.03375492
0003c0 c4 5d 9e bb 6f 2d bb 3b eb c3 fb bc dc cb 42 bc
       -0.004832955 0.005712203 -0.03073307 -0.011889424
0003d0 12 cc 41 bc 54 b2 1a bc 6e be 3b b9 51 a6 89 3c
       -0.011828439 -0.009441931 -0.0001790465 0.016802939
0003e0 b4 9f 9e 3b e9 77 1c 3d 8e c5 af 3a 87 5d 13 3c
       0.0048408154 0.038200293 0.0013410316 0.008994467
0003f0 e9 97 3e bc 3c 29 53 bc 7b e8 8c ba d2 30 e7 bb
       -0.011632898 -0.012888249 -0.0010750437 -0.0070553804

embeddings.position_embeddings.weight f4 [128, 16]
000000 f9 74 66 bb f3 ef 4a bd 87 5a c0 3b 9b 56 06 3a
       -0.0035164936 -0.04954524 0.0058701667 0.00051245996
000010 b5 ae ee bb 1b b2 73 3c 05 75 45 3b ce 80 a8 3c
       -0.0072840103 0.014874007 0.0030129564 0.020569231
000020 a4 b8 d1 b9 a7 fc 12 3c 45 6d 36 3c 9e 4e f0 3b
       -0.00040001154 0.00897137 0.01113445 0.0073335906
000030 3e 8d 06 3c 61 0a 4b 3b b6 83 9f 3b de f5 51 3b
       0.008212386 0.0030981528 0.004867996 0.0032037417
000040 dc 21 66 3b 07 a0 ab bc ae ca c8 ba b5 81 86 3c
       0.0035115397 -0.02095033 -0.0015319192 0.016419271
000050 16 b4 0b bd f4 28 44 bc 27 68 5d bb 21 47 3f bc
       -0.03410729 -0.011972655 -0.0033784003 -0.011674673
000060 45 fa 9c bc 2f 3b 87 3c bf cc 10 3c 32 d9 12 3c
       -0.019162307 0.016507713 0.008837878 0.008962916
000070 8b 9f 70 bc e5 da 62 3c 9a ea 90 bb 6e 01 ed bb
       -0.0146864755 0.013846134 -0.004422498 -0.0072328364
000080 67 bf 7f bc 5e 85 5b bd 3c 18 72 3c 74 2d c3 3c
       -0.015609599 -0.053593986 0.014776286 0.023825385
000090 19 10 97 3c a7 2c 23 3c 4a cf 54 ba 4e 34 eb ba
       0.018440293 0.009959376 -0.00081180467 -0.0017944665
0000a0 8f 8e 44 3c 14 41 e1 bb dd 31 08 3c 82 0d e7 bc
       0.011996879 -0.006874213 0.00831267 -0.028204683
0000b0 4b 8c 7e bc 19 bf 12 bd cb 32 26 bc c2 fc 87 ba
       -0.015536378 -0.035826776 -0.010143946 -0.001037501
0000c0 ee 1e ab bb 39 45 5e bc f5 70 56 bb 04 a2 aa bc
       -0.005222193 -0.013566309 -0.0032721136 -0.020829208
0000d0 5c c5 d1 3c ff dc 98 bc c7 ba 12 3c 34 0c fc 3c
       0.025606804 -0.018660067 0.008955664 0.030767538
0000e0 80 c5 cb 3b 26 8a c1 3b b0 73 ed 3b a9 33 09 bd
       0.006218612 0.005906361 0.007246457 -0.033496533
0000f0 70 a3 23 3c 1b 32 91 3b dd a3 1a bc 04 c3 24 3d
       0.009987697 0.004431022 -0.009438482 0.040225044
000100 0a 50 11 3c bd 4a 48 bc ae 05 05 3d 54 df 10 3c
       0.00886918 -0.01222485 0.03247612 0.008842308
000110 2f d5 6e 3c 90 25 3f 3b 09 e9 55 bc 38 34 da 3c
       0.014577194 0.0029166676 -0.013056048 0.026636228
000120 50 b4 68 3a 44 e1 61 3b fd 54 52 bb 33 d3 c5 3b
       0.00088769663 0.0034466544 -0.0032094114 0.00603714
000130 26 7c 15 3d db 9d 1c 3b 05 ea 01 3c 58 70 40 bc
       0.03649535 0.00238978 0.00792933 -0.011745535
000140 17 b0 0f 3c f4 d8 d7 3c 40 cc 01 bc f2 b4 09 bd
       0.00877001 0.026348568 -0.007922232 -0.03361983
000150 b6 f3 27 bc 0e f2 3d bc 95 92 6c bc 60 80 cb 3c
       -0.010250976 -0.011593355 -0.014439245 0.024841487
000160 a7 07 01 bc 9e 26 24 3d d0 05 80 3c ae fa b5 3b
       -0.00787536 0.04007589 0.015627772 0.005553565
000170 93 a3 35 3c 60 32 af bb c1 c1 12 3c d0 de 8d 3c
       0.011086362 -0.0053465813 0.008957327 0.01731816
000180 0e ed c5 3b cd f0 1e 3d 26 f0 28 3c d9 f5 57 3d
       0.006040222 0.038803864 0.010311162 0.052724693
000190 de 18 ea bc 79 ca c1 b9 f4 06 4c bb fb 53 28 3c
       -0.02857631 -0.00036962682 -0.0031132074 0.010273929
0001a0 8b 57 81 bc bd d6 bc 3c 4e d5 ef bc 4f 88 d4 3c
       -0.015788814 0.023051614 -0.029276516 0.025943903
0001b0 76 0f 99 bb 0c d2 93 3b 20 4b 03 bc c2 91 61 bc
       -0.0046710325 0.0045111235 -0.008013517 -0.0137676615
0001c0 54 93 2c 3c 3b 36 6d ba cf 7a 14 3c bc ec b0 bb
       0.010533173 -0.00090489135 0.009062483 -0.0053993147
0001d0 d9 06 ba bc 4e 57 89 bd 5f 33 0a 3a 2e ce 52 bc
       -0.022708343 -0.06706105 0.0005271937 -0.01286654
0001e0 78 65 c7 3c 66 72 bb 3c 3d ca b0 bc 84 e8 26 3c
       0.024340376 0.022881698 -0.02158081 0.010187272
0001f0 53 85 bf 3c f9 2f 16 3c 0e e0 b6 bc 84 31 da b9
       0.023379004 0.009166711 -0.022323634 -0.00041617092
000200 55 f5 b8 bb 6b d8 36 3b f0 a9 ed bc aa 78 81 bc
       -0.00564448 0.0027899991 -0.029011697 -0.015804607
000210 ef a3 60 3c b0 be 29 bd 75 53 c2 bc d0 d0 8e 3c
       0.01371096 -0.04144162 -0.023721436 0.017433554
000220 73 74 ca bb 8c eb fe bb af 78 ca b9 19 a8 d6 bc
       -0.0061784326 -0.007779544 -0.0003861836 -0.026203202
000230 87 59 32 3d ca 67 3f bb 69 64 54 bc 76 0e aa ba
       0.04354241 -0.002920615 -0.012963393 -0.001297428
000240 21 5a b5 3c 30 b1 0f bc 2d 0b 87 3c a2 b8 82 bc
       0.022137703 -0.008770272 0.016484821 -0.01595718
000250 2b b1 11 3d 74 1c 9b bc c9 22 64 bb d7 6c c6 3a
       0.03556935 -0.018934466 -0.0034810773 0.0015138638
000260 31 8d 1c bc 10 fd e5 bc 8f e7 38 3c d2 cc 8e bc
       -0.009555147 -0.028074771 0.011285677 -0.01743165
000270 34 ed af 3b 35 f0 69 3c 23 2f f2 bb b3 81 d4 bc
       0.005368853 0.014278461 -0.007390873 -0.025940752
000280 f7 c4 72 3c 64 99 c5 3b 6d 6f 81 bb 7e 23 4b 3d
       0.014817468 0.0060302485 -0.0039500506 0.049594395
000290 47 7f 82 3a fc 25 b1 bc 9b 6f a5 bc 72 56 41 bc
       0.0009956144 -0.021624558 -0.02019482 -0.011800395
0002a0 ee 1b 54 3c 49 37 f6 38 eb fd 94 3c ee 06 b5 3c
       0.012946112 0.00011740492 0.018187484 0.02209803
0002b0 05 a6 df 3b ec 2f d3 bb bf c0 82 3c 96 7e 0f bd
       0.006825211 -0.0064449217 0.01596105 -0.03503283
0002c0 ae 58 69 3c 37 0c 31 3b f3 d2 1e 3c c7 2b 50 bc
       0.014242334 0.0027015337 0.009693849 -0.01270575
0002d0 59 36 28 3b d0 6e 91 3c 60 34 4c 3c 13 7a d1 3c
       0.002566716 0.017753035 0.012463659 0.025570905
0002e0 08 69 06 bd 43 7e 79 bc e1 a4 93 3c 7c 18 61 ba
       -0.03281501 -0.015227857 0.018022956 -0.00085867173
0002f0 79 b0 64 bc a2 0c 7a bc e7 ab 89 bc 98 6b dd 3c
       -0.01395809 -0.015261801 -0.016805602 0.027028844
000300 fd 6b 54 3b bb e5 51 3c 17 f8 70 3c 54 e2 89 b9
       0.0032413 0.01281112 0.014707587 -0.00026299304
000310 63 52 00 3d 18 5d 5e bc cd 48 ae bc ed 96 a4 bc
       0.03132857 -0.013572 -0.021274948 -0.020091498
000320 74 08 2a bc 0b e9 07 3d f9 c4 5e bc 65 95 13 bb
       -0.010377992 0.03318123 -0.013596767 -0.0022519466
000330 77 8a 6b bd cd f4 3c bc cf 34 bd 3c 98 b0 22 bd
       -0.057505097 -0.011532974 0.02309647 -0.039719194
000340 11 5e 8a 3b a6 f7 9d bc b3 f8 7a bc 3f d4 9c 3a
       0.0042226394 -0.019283127 -0.015318084 0.001196511
000350 60 fc dc 3c 02 91 1c 3d f2 24 00 bb a3 84 8d 3c
       0.02697581 0.038224228 -0.001955327 0.01727516
000360 a9 c0 e8 3c dd 59 19 bc d3 19 01 bd e0 41 a1 bc
       0.02841218 -0.009359804 -0.03151877 -0.019684732
000370 42 12 a5 3b 46 fa 32 bc 31 21 18 3c 7b 73 8d bc
       0.005037577 -0.010923928 0.009285257 -0.01726698
000380 9e e2 9b 3b 11 fc 1f bd b3 76 45 bb c4 d0 3f ba
       0.0047572395 -0.03905875 -0.0030130565 -0.000731718
000390 0c 2f 6c bd fd 67 49 bc 8f ed 93 3c 7f b1 0e 3d
       -0.057662055 -0.012292859 0.018057613 0.034837242
0003a0 90 2e 1d bb 09 34 4a 3c 8d 28 48 bc e6 c1 d9 bc
       -0.0023984052 0.012341508 -0.012216699 -0.026581716
0003b0 0c 98 e5 3c 52 30 92 3c 7b 32 ca 3b 56 90 02 3c
       0.028026603 0.017845307 0.0061705685 0.007968983
0003c0 31 94 8f bc 46 51 97 38 d5 75 32 3c 8c 56 88 3c
       -0.017526718 7.2153794e-05 0.010892351 0.016642831
0003d0 19 19 c1 3b 7b 1a a3 bc d6 33 0c bd 7d e0 97 3b
       0.0058928845 -0.019910088 -0.034229122 0.0046349154
0003e0 e6 60 d1 3c 17 cd 9e 3c e9 6f 24 3d b0 4c 0d bd
       0.0255589 0.019384904 0.04014579 -0.034496963
0003f0 7c 7d 73 3c 0f b0 5d bc d7 a9 fc b9 61 cc 4b ba
       0.014861461 -0.013530745 -0.00048191726 -0.000777429

embeddings.token_type_embeddings.weight f4 [2, 16]
000000 db 1f 13 3c 90 63 f2 3c 70 a1 ac 3c db af 88 3a
       0.008979763 0.02958849 0.021073073 0.0010428386
000010 3e 3e 16 3c 20 30 e5 bb 6c e3 68 bb 98 45 aa bc
       0.009170113 -0.0069942623 -0.0035535945 -0.020785138
000020 46 f9 a9 bc 64 99 a0 3c 57 89 ae 3b 3b 11 77 3c
       -0.020748746 0.019604392 0.005326431 0.015079792
000030 95 1a fb 3c a4 5b 9e 3c 2f 43 c8 bc 77 c9 70 3c
       0.030652324 0.019330807 -0.024446098 0.01469647
000040 d4 5c 82 bb c4 3e a7 3c 41 40 10 bc 45 a8 f1 bc
       -0.003978351 0.020415671 -0.008804382 -0.029499182
000050 06 72 ca 3c bc b0 29 3a c0 11 8e 3b e6 29 cb 3c
       0.024712574 0.0006473174 0.004335612 0.024800252
000060 1c ad 22 bc 3e f9 5c bc ce f9 96 bc e2 da 57 bc
       -0.009928968 -0.013487158 -0.018429663 -0.013174744
000070 1b 45 a3 bb 98 f3 a9 3b f9 d6 28 3d 65 8f fc bb
       -0.0049826032 0.0051865093 0.04122064 -0.0077075236

embeddings.LayerNorm.weight f4 [16]
000000 00 00 80 3f 00 00 80 3f 00 00 80 3f 00 00 80 3f
       1.0 1.0 1.0 1.0
000010 00 00 80 3f 00 00 80 3f 00 00 80 3f 00 00 80 3f
       1.0 1.0 1.0 1.0
000020 00 00 80 3f 00 00 80 3f 00 00 80 3f 00 00 80 3f
       1.0 1.0 1.0 1.0
000030 00 00 80 3f 00 00 80 3f 00 00 80 3f 00 00 80 3f
       1.0 1.0 1.0 1.0

embeddings.LayerNorm.bias f4 [16]
000000 00 00 00 00 00 00 00 00 00 00 00 00 00 00 00 00
       0.0 0.0 0.0 0.0
000010 00 00 00 00 00 00 00 00 00 00 00 00 00 00 00 00
       0.0 0.0 0.0 0.0
000020 00 00 00 00 00 00 00 00 00 00 00 00 00 00 00 00
       0.0 0.0 0.0 0.0
000030 00 00 00 00 00 00 00 00 00 00 00 00 00 00 00 00
       0.0 0.0 0.0 0.0

encoder.layer.0.attention.self.query.weight f4 [16, 16]
000000 87 f3 a3 38 60 1b 89 3c 25 bd 77 bc 79 ac 54 bc
       7.817806e-05 0.016736686 -0.015120779 -0.012980574
000010 4e 58 ee 3c 12 12 8f 3c b1 9c 20 bd 47 06 02 3c
       0.029094841 0.017464671 -0.039211933 0.007936067
000020 95 90 70 bc 87 57 68 bc d8 e0 5d 3c aa 4e ce ba
       -0.014682909 -0.014181024 0.013542376 -0.0015739996
000030 c6 7b b7 3c 23 ef fa bc 92 32 20 bc 39 03 0f bd
       0.022397887 -0.030631607 -0.009777682 -0.034915183
000040 60 ac de 3b 45 02 86 bb 46 35 e3 3b 0f 38 4b bc
       0.006795451 -0.004089626 0.006933841 -0.012403502
000050 1e c0 73 3c dd d6 c7 3a 56 74 0d bd 6a 44 6d 3a
       0.014877347 0.0015246529 -0.034534775 0.0009051027
000060 95 b4 e7 bb 14 ff 1f 3b 2b 1c 4f bd 4e 52 b1 bc
       -0.0070710876 0.0024413513 -0.050563972 -0.021645691
000070 df a8 20 bb 8f 62 2c 3d 4e 65 51 bd 8b 4f db 3c
       -0.0024514718 0.04208618 -0.051122002 0.026771327
000080 e7 29 15 3d 40 58 d1 bc c2 45 e6 bb 41 e9 ed 3c
       0.036416914 -0.025554776 -0.0070273587 0.029041888
000090 8a db b1 3c 84 50 91 3c 8a 72 00 3d 62 cb 0c 3a
       0.02171113 0.017738588 0.031359233 0.00053708826
0000a0 3c 31 68 bc f3 09 d0 3b 8e 8e d2 3b b1 af 1e bc
       -0.014171895 0.0063488423 0.0064256852 -0.009685443
0000b0 a2 44 c7 bb c2 e5 e6 3a 75 75 00 3b b4 d0 89 3b
       -0.0060811797 0.0017616081 0.001960126 0.0042057876
0000c0 5c 1f b9 bc 6c bd 9d 3b 21 ef 02 3d 72 38 00 bd
       -0.022597961 0.0048138406 0.031966332 -0.03130383
0000d0 6b cf 55 3b 05 09 b9 bc 42 c0 f1 37 4a 98 d4 bc
       0.0032624851 -0.022587309 2.8818966e-05 -0.025951523
0000e0 b3 21 4e 3b 60 2b 5c 3c b4 66 a4 3c 33 21 63 bc
       0.0031453192 0.013438076 0.020068504 -0.013862896
0000f0 95 51 89 bc b0 78 0d bd 73 65 d1 ba 63 65 85 3c
       -0.016762534 -0.034538925 -0.0015975669 0.016283697
000100 dd 1d b5 bb b4 9f d0 bc 49 aa 10 3c 34 9a d9 bc
       -0.0055272416 -0.025466777 0.008829662 -0.026562788
000110 5e 8e aa bb f9 4e e9 3b fa 86 80 3b 1f 16 21 bd
       -0.00520496 0.00712001 0.0039223405 -0.039327737
000120 80 10 ab 3c bd 43 3f bc 65 44 b0 3c 8f 38 d0 3b
       0.020881891 -0.011673865 0.021516988 0.0063543986
000130 d7 6b d0 ba 17 e1 9f bc fb da 5d bb e2 31 87 3c
       -0.0015901279 -0.01951651 -0.0033852446 0.016503278
000140 69 c2 8f 3c 87 49 6f bc ea 7b c5 bc 9d 0b 75 3c
       0.017548757 -0.014604933 -0.024106938 0.014956382
000150 0b 3f b7 bc ef c7 c2 bc 75 a8 f2 bc 82 47 38 bc
       -0.022368928 -0.023776976 -0.029621342 -0.011247518
000160 f4 5b 40 3c 49 29 56 bc 6b ee 25 bd 8f 4c 81 bb
       0.011740673 -0.013071367 -0.040510576 -0.003945894
000170 8f e9 f4 bb f9 ee b2 bc 91 45 1f 3d 44 93 d2 3b
       -0.0074741314 -0.021842467 0.038884703 0.006426247
000180 33 2e 25 bb 4b 41 d9 3b 9d 4a 83 bc 29 6e 94 3b
       -0.0025204539 0.006630098 -0.01602679 0.0045297337
000190 ea 2a 8c 3c 2f 37 15 3c 82 07 aa 3b d5 6a 61 bb
       0.017110307 0.009107395 0.0051888833 -0.0034395952
0001a0 8e 9a 26 bc 3a 28 8a b9 29 4d d8 bc c2 61 04 3d
       -0.010168685 -0.00026351382 -0.02640398 0.03231979
0001b0 ab f6 d4 bc 42 02 2b 3d 17 5e 90 ba 00 14 18 3d
       -0.025996527 0.0417502 -0.0011014369 0.03712845
0001c0 67 bf cc 3c 3e 52 4a 3c af 80 df bc 8f 94 da 3c
       0.024993611 0.01234871 -0.02728304 0.026682166
0001d0 67 a7 06 bd 66 bc 3e bb 86 a5 d7 bc 70 0e f5 3a
       -0.03287449 -0.0029103993 -0.026324045 0.0018696319
0001e0 e3 00 75 3c 8a a9 2f 3c 3c 3f f2 bb 8f c4 2c 3b
       0.014953825 0.010721574 -0.007392792 0.0026362275
0001f0 8e 38 a9 3c c2 68 df 39 1e 0b 23 bc 33 a6 4d 3d
       0.02065685 0.00042611925 -0.009951381 0.050207328
000200 d2 b8 b7 bb 80 22 72 bc fc 91 05 3c 06 4f 82 bc
       -0.005606749 -0.014778733 0.008152481 -0.015906822
000210 ec 95 04 bc 45 5b 36 3c 95 60 d7 3c 3b b6 42 3c
       -0.008092385 0.011130159 0.026291171 0.011884267
000220 52 d2 25 3c 2f bc fa bb 46 8b b7 bb f8 d5 5d 3c
       0.010120945 -0.0076518278 -0.0056013195 0.013539784
000230 fd aa 47 bb 4f 9c 2f 3c 6d ff 85 bc 1a 21 0a 3c
       -0.0030466907 0.010718419 -0.016357148 0.008430744
000240 9f 14 a2 bc 21 2d ad 3b ea de bd bc 0a 3a 20 3d
       -0.019785224 0.005284921 -0.023177583 0.03911785
000250 23 5e 1f 3b b6 1d 0e 3d 58 14 29 bc 98 0d 05 bd
       0.0024317584 0.034696303 -0.010319792 -0.032483667
000260 00 21 a0 3c 13 35 04 bc 8c 07 84 3c da 81 00 bc
       0.019546986 -0.0080692945 0.01611688 -0.007843459
000270 1f 53 88 3b c4 39 89 3c 7e 00 fb 3b bb 40 9b 3c
       0.0041602994 0.016751178 0.007659971 0.018951764
000280 73 26 b0 bc c4 86 b1 bb 33 0f 2c bd ab 18 ad bc
       -0.021502709 -0.0054176766 -0.042006683 -0.021129927
000290 4f cf 5c bc f5 ba 90 bb ef 2b 6a bc d0 77 78 bc
       -0.013477161 -0.0044168183 -0.014292701 -0.015165284
0002a0 93 84 2e bc fc 78 ab 3c e9 ad b2 bb 64 94 18 3b
       -0.010651725 0.020931713 -0.0054528606 0.0023281807
0002b0 44 a3 92 ba 25 7b be 3c a9 67 88 3c e9 0d 03 bb
       -0.0011187573 0.02325208 0.016650992 -0.0019997305
0002c0 b5 3e bf 3c 7e 48 8a bb 22 e8 f8 3b 6e 88 e5 bb
       0.02334533 -0.0042200675 0.0075960318 -0.007004789
0002d0 a2 0a c8 b9 a2 1a f4 bb 24 6c 18 bc bb 00 e7 bb
       -0.00038154895 -0.007449464 -0.0093031265 -0.0070496476
0002e0 d6 a1 80 3c f4 95 39 bb f2 7f b2 bc e7 a5 cf bc
       0.01570217 -0.0028318139 -0.021789525 -0.025347663
0002f0 21 87 8d 3b a9 a2 56 3c 3b 0c bb 3c eb 27 c3 3b
       0.004319087 0.013100305 0.02283298 0.0059556863
000300 21 75 f8 bb 77 48 8e bc f5 9d 5b 3c a5 d5 98 3c
       -0.007582322 -0.017368538 0.013404359 0.018656561
000310 58 a5 26 3c ea ee c7 bc ab 7d 30 3d 7e 84 b6 bc
       0.010171257 -0.024405915 0.043088596 -0.022279974
000320 8a a4 b5 3c e1 3d 5a 3c 06 17 a9 3c d3 62 5b 3d
       0.022173185 0.013320417 0.020640861 0.053561043
000330 b7 74 30 3d 02 59 f2 bc fb bc 9c 3c 66 c4 ba bc
       0.043080058 -0.029583458 0.019133082 -0.022798728
000340 b4 f3 24 bc 13 12 61 bb 2e da c5 ba 18 c3 3a 3c
       -0.010067869 -0.0034343048 -0.001509493 0.011399053
000350 6f 0b 77 3c f4 f5 e3 3c 6a d4 b1 3c 29 a2 db 3b
       0.01507841 0.02782724 0.021707732 0.0067026806
000360 05 51 d5 ba 4f c3 af bc e3 f6 6a 3b f0 cc 17 bc
       -0.0016274756 -0.021455435 0.0035852722 -0.0092651695
000370 da 21 8a bc 5c 95 f2 bb b9 e0 4b 3c 87 af 38 bc
       -0.016861845 -0.007403059 0.012443715 -0.011272318
000380 5b 63 39 bc 95 7d 11 bc ce 3a e8 bb 37 8b d4 bc
       -0.011315192 -0.008880039 -0.007087088 -0.025945289
000390 55 49 3d 3c 89 24 92 b8 76 cb 00 bd 46 6f 04 bc
       0.011553128 -6.968628e-05 -0.031444035 -0.00808317
0003a0 29 3f 86 3c c7 dd 82 bc 89 d7 e8 3c b9 5a 50 3c
       0.016387539 -0.015974892 0.028423088 0.0127169425
0003b0 c2 79 50 bd 9e 43 e0 3c 49 1a f2 3c d3 68 88 bc
       -0.050897367 0.027375992 0.02955355 -0.016651547
0003c0 86 82 cc 3b 29 ea c8 3c a4 89 19 3c 50 8e 8c 3b
       0.0062411455 0.024525719 0.009371195 0.004289426
0003d0 64 dc be 37 e0 25 0a bd 7f 8e 9e 3b ab c6 74 3b
       2.2752392e-05 -0.033727527 0.004838764 0.003734986
0003e0 87 46 13 ba d3 0a 33 bc 3b 90 30 bc 9c 8e a8 3c
       -0.00056181144 -0.010927874 -0.010776575 0.020575814
0003f0 82 dc 58 3c 98 64 e9 bb 56 81 18 3c 9b 75 b9 3c
       0.013236167 -0.0071225874 0.00930818 0.022639086

encoder.layer.0.attention.self.query.bias f4 [16]
000000 00 00 00 00 00 00 00 00 00 00 00 00 00 00 00 00
       0.0 0.0 0.0 0.0
000010 00 00 00 00 00 00 00 00 00 00 00 00 00 00 00 00
       0.0 0.0 0.0 0.0
000020 00 00 00 00 00 00 00 00 00 00 00 00 00 00 00 00
       0.0 0.0 0.0 0.0
000030 00 00 00 00 00 00 00 00 00 00 00 00 00 00 00 00
       0.0 0.0 0.0 0.0

encoder.layer.0.attention.self.key.weight f4 [16, 16]
000000 cb 01 1b bb 07 c1 8a bc 33 12 2c 3c 06 6c 8e ba
       -0.0023652192 -0.016937746 0.010502386 -0.0010865934
000010 0e d9 63 3a ed 9c a3 3c ee 3a ab bc d7 21 4e 3c
       0.00086917065 0.019972289 -0.020902123 0.01258131
000020 ce 97 72 3c f4 05 39 3d 22 07 50 3c 8d 28 22 3c
       0.014806701 0.045171693 0.012697013 0.009897363
000030 6e 16 bb bb 24 59 41 3c bd cd d8 3c 7e 69 d5 bb
       -0.005709461 0.011801038 0.026465291 -0.00651282
000040 4d 12 20 bb e3 d0 00 ba 11 90 00 39 75 8e 90 3c
       -0.002442497 -0.0004913939 0.000122607 0.017646054
000050 73 3d 52 bd 09 18 96 3c b7 58 2a 3c a6 57 f4 bc
       -0.051328134 0.018322008 0.010397128 -0.02982695
000060 43 9b 83 ba ed 15 1f 3c 22 20 1a 3c a5 90 d1 3c
       -0.0010040778 0.009709817 0.009407075 0.025581667
000070 0a 6e dc bc 33 17 48 bc 05 01 ac bb f0 8e 5a bd
       -0.02690794 -0.012212562 -0.005249145 -0.053358972
000080 4a c0 a4 3c 12 88 5b bc ca eb 56 3b df 71 80 bb
       0.020111222 -0.013399141 0.003279435 -0.0039198245
000090 c9 f8 fe ba 73 2f 91 3b 59 61 2c bd c6 40 84 bc
       -0.0019452806 0.004430705 -0.042085025 -0.016144168
0000a0 ea 7e a6 bc 68 07 95 bb 2b 27 a6 3c 97 81 06 3c
       -0.02032419 -0.004548002 0.020282349 0.008209608
0000b0 15 36 7c bc 52 ed 14 3a 21 05 f4 3c ee 60 ce bb
       -0.015393754 0.00056811154 0.029787602 -0.006298176
0000c0 1a a8 8e bc 6b bc 11 bd 9b da 25 bc 50 08 ec 3c
       -0.017414141 -0.03558008 -0.01012292 0.028812557
0000d0 9b 95 e1 bc 9a 6e 02 3d b2 8e 34 bd 58 4f b9 bb
       -0.027537158 0.03184376 -0.044081397 -0.0056552105
0000e0 80 c2 90 3b db 0e 0b 3c 4e 7d 4d bc 89 37 90 3c
       0.0044177175 0.008487429 -0.012542082 0.017604606
0000f0 27 c2 01 3d 3b dd 16 3d 54 92 e7 bb b4 c5 91 3c
       0.0316793 0.036832076 -0.007067004 0.017794468
000100 69 05 9a bc 62 95 4e bc 01 ba 1e 3b 93 f9 0c bd
       -0.018801408 -0.012608858 0.0024219754 -0.0344177
000110 14 ab 0d bc 01 04 d4 bb b3 73 15 3d c9 dc 7b bb
       -0.008646745 -0.006470204 0.036487292 -0.0038431159
000120 2b 5f c8 bb e0 54 04 ba 2e fe c1 3c 98 a7 57 bc
       -0.0061148605 -0.0005048048 0.023680773 -0.013162516
000130 dd 07 99 3c b7 19 04 bd 22 6b fb 3c 7f de 86 bc
       0.018680507 -0.032251086 0.030690733 -0.016463516
000140 29 fc 28 bc 1d 5a 8c bb e4 36 a5 3b 3c 77 2c 3d
       -0.010314026 -0.0042832033 0.005041944 0.0421059
000150 a3 f9 0e 3d 52 6d a6 bc a3 c9 8b 3a 18 a5 01 3c
       0.03490604 -0.0203158 0.0010664951 0.007912897
000160 4d 95 bd bb 63 bd fa 3c 09 86 d4 3c 5b f7 83 3b
       -0.0057856203 0.030607885 0.02594282 0.00402729
000170 58 11 40 bc 0f 79 53 bd 61 27 75 3c 25 7e 65 3c
       -0.011722885 -0.051629122 0.014963002 0.014007126
000180 ef 1c cd 38 49 59 8c 3c 1c 81 f7 b9 ff 4b 85 3b
       9.780551e-05 0.017132418 -0.00047207705 0.0040678973
000190 77 95 0c 3c 06 35 44 37 80 e0 38 bc c2 b6 36 bc
       0.008580557 1.1694856e-05 -0.011283994 -0.011151971
0001a0 13 18 69 3b 21 67 2a 3c af 51 59 3c 91 a7 81 3b
       0.0035567328 0.010400564 0.013264104 0.003956743
0001b0 e9 32 a4 3c 8e cd f1 3c 38 ce be 3c 32 21 60 3c
       0.020043807 0.029516961 0.023291692 0.013679789
0001c0 a6 30 3c 3c 84 85 91 3c 32 10 98 bc dc 1f a8 bc
       0.011486208 0.01776386 -0.01856241 -0.020523004
0001d0 e6 0f d4 3b c2 02 b4 ba 45 42 30 bc ae 79 b3 3c
       0.006471622 -0.0013733732 -0.010757987 0.021908607
0001e0 b4 bb ab bb 23 c5 f9 bc 60 00 98 bc c1 f8 3e bc
       -0.005240882 -0.03048951 -0.018554866 -0.011655987
0001f0 e4 5b b6 3c ed fd 27 bc b4 0b 3c 3c cc 2c 4e bc
       0.022260614 -0.010253412 0.0114774 -0.012583923
000200 eb 22 61 bc 8e 11 40 bc 45 18 b4 bc b2 58 f1 3c
       -0.013741235 -0.011722935 -0.021984229 0.029461239
000210 55 87 95 3c 72 bc c6 3c 9c 19 4c 3d 77 f6 47 3c
       0.018253008 0.02425978 0.04982911 0.012204758
000220 c7 2b 0f bd 2f a6 39 bc 85 e2 60 bd bc fb 26 bc
       -0.03495386 -0.011331125 -0.054903526 -0.010191854
000230 4e c2 80 bb 6b aa 8e bb 25 93 ab 3c dd fa 06 3d
       -0.003929413 -0.0043538115 0.020944187 0.032954086
000240 61 6b 69 bc 87 38 32 3b 87 f9 db bc 84 0d c7 3c
       -0.0142467925 0.0027194337 -0.026852382 0.024298437
000250 f4 78 c6 bb eb da 06 bd f5 ca f1 3a 25 e9 3e bc
       -0.006056899 -0.03292362 0.0018447327 -0.011652266
000260 40 fe d4 bc ed 1b ab 3c 8f e5 38 bc 1f e5 03 bd
       -0.026000142 0.02088734 -0.0112852 -0.03220093
000270 14 9a 15 bc 4e 5b d2 bc c5 fa e0 bc 0a c3 74 3d
       -0.009130973 -0.025678303 -0.027463326 0.059756316
000280 6b c9 9f bc 32 30 9c bc a0 af b8 bc 7c 3e e2 bc
       -0.019505223 -0.01906595 -0.022544682 -0.027617685
000290 a6 88 25 bc b8 b9 2b 3c de 4c af 3b 3d 39 fb 3c
       -0.01010338 0.0104812905 0.0053497395 0.030666942
0002a0 72 2b c9 3a bc 11 f4 3b 6b a2 11 bd 73 7f 2b bd
       0.0015348031 0.007448403 -0.035555284 -0.041869592
0002b0 32 d7 58 3b 0e a1 c4 3c e6 16 81 3b 2b ce dd bc
       0.003308725 0.024002578 0.0039394973 -0.027075848
0002c0 94 80 1c bd 01 cb fa 3c 0d 98 cc bb c7 5e a2 3a
       -0.03820856 0.030614378 -0.006243712 0.0012387865
0002d0 f5 93 3d bd 2f 7d db bc 8d e3 a6 3c cf ff dd bb
       -0.04628368 -0.02679309 0.020372177 -0.0067748795
0002e0 dd f6 bf 3c 95 f3 c3 bc 7f 59 0b 3d 9e cf 9d bb
       0.023433143 -0.02391986 0.034020897 -0.0048160097
0002f0 17 46 e2 39 f3 f3 b1 3c 1a 48 19 bb 32 16 94 3c
       0.000431583 0.02172277 -0.0023388923 0.01807699
000300 84 8e 4d 3c 3d 4b e4 bc 64 9e 87 bc 1c 95 c2 bb
       0.012546185 -0.027867908 -0.016555019 -0.0059381854
000310 cc 39 9f 3c 19 89 14 3d e6 5e 02 3b 92 ea 9a 3c
       0.01943674 0.03626356 0.001989299 0.01891068
000320 c9 b5 28 bc a8 ae 08 bc b2 b2 5a ba e8 41 98 3c
       -0.010297247 -0.008342423 -0.0008342668 0.018586114
000330 ca 65 3e 3b be ab 6b bc 21 de a6 3c c9 55 70 3c
       0.002905237 -0.014384208 0.020369591 0.01466889
000340 37 23 95 3c 2d 02 81 bb 74 44 ff 3c 00 39 5b bc
       0.018205268 -0.003937027 0.03116057 -0.013380289
000350 0f 0d 4f ba d0 fb 73 3c 92 35 b1 3c 17 e6 a7 bb
       -0.0007898369 0.01489158 0.02163199 -0.0051238644
000360 c0 07 35 3c 7d bb 91 bb 25 eb e7 bb a8 ca 1d 3d
       0.011049211 -0.004447399 -0.007077592 0.038523346
000370 c2 45 fe 39 3e e2 6f ba d4 c6 26 3c 24 2a 28 bb
       0.0004849863 -0.0009150839 0.01017924 -0.0025659883
000380 ec c4 d1 bc f9 48 b6 3b e7 67 dc bc 21 e0 cc bb
       -0.025606595 0.0055628982 -0.026905013 -0.006252304
000390 85 be 44 bc 49 71 39 3b dd a4 16 3b 13 c8 62 bd
       -0.012008314 0.0028296283 0.002298645 -0.055366587
0003a0 b2 e0 49 3c f9 14 8f bc 1f 06 08 3d 4f ee 78 3c
       0.012321638 -0.017466055 0.033208963 0.015193536
0003b0 64 b1 c4 3b ab 6f a5 3b 8a 79 21 3c 54 ee 53 bc
       0.006002592 0.0050487122 0.009855637 -0.01293524
0003c0 87 17 b5 3c 7d 19 2b bb 30 4b 66 3a 89 46 36 bc
       0.022105945 -0.0026107721 0.00087850075 -0.011125215
0003d0 49 da 63 3c 3a 4c 21 3d d9 c7 a9 bc 18 02 ca bc
       0.013907024 0.039379336 -0.020725178 -0.024659202
0003e0 0d 52 2b 3d 3a 39 04 3c cf 4e a5 3c b8 cd 2c bb
       0.041826297 0.0080702845 0.02017918 -0.0026367735
0003f0 41 e4 be 3c 30 3e 1f bd 6e 03 06 bc 9c d0 02 bc
       0.0233022 -0.038877666 -0.008179529 -0.007984307

encoder.layer.0.attention.self.key.bias f4 [16]
000000 00 00 00 00 00 00 00 00 00 00 00 00 00 00 00 00
       0.0 0.0 0.0 0.0
000010 00 00 00 00 00 00 00 00 00 00 00 00 00 00 00 00
       0.0 0.0 0.0 0.0
000020 00 00 00 00 00 00 00 00 00 00 00 00 00 00 00 00
       0.0 0.0 0.0 0.0
000030 00 00 00 00 00 00 00 00 00 00 00 00 00 00 00 00
       0.0 0.0 0.0 0.0

encoder.layer.0.attention.self.value.weight f4 [16, 16]
000000 3e be a6 3c 12 ef 57 3b 55 7a d8 3b b3 10 82 3c
       0.020354386 0.0032948893 0.00660638 0.015877103
000010 4e 26 b1 39 26 99 1c bd ea 9d 89 3c 6f 4c d0 3c
       0.0003378861 -0.03823199 0.016798932 0.025427071
000020 40 16 0d 3c 22 c8 79 3b 21 58 27 3c 9d b9 da 3b
       0.008611262 0.0038113673 0.010213883 0.006674959
000030 28 5b 9d bc 1b 49 8b bc d2 a2 94 bb d0 c2 77 3c
       -0.019208506 -0.017002633 -0.0045360113 0.0151221305
000040 bc d7 c7 bc 57 43 a3 3c 25 4b 3f 3c 1d 96 ac 3c
       -0.024394862 0.019929571 0.011675631 0.021067673
000050 06 0e 6e 3c 2d 09 85 bc c7 f8 37 bc 0b db 24 3d
       0.014529711 -0.016239727 -0.011228747 0.04024796
000060 0b c2 e3 3c b9 4a 48 3b 6e cd af bb 2f 08 c3 bb
       0.027802488 0.0030562116 -0.0053650653 -0.0059519033
000070 c7 15 a8 3c 98 af 3e 3c 08 10 80 bb 3c 5c a0 bc
       0.020518197 0.0116385445 -0.003908161 -0.01957523
000080 fc 7e ae 3b c9 68 f3 3c ca 44 e9 3c 30 c7 f4 3b
       0.0053251963 0.029713051 0.028475184 0.007470034
000090 b5 35 96 3b ab ac ef b9 d2 8c 35 bc 44 e2 ab bc
       0.004584039 -0.0004571428 -0.011080937 -0.020981915
0000a0 19 16 e1 3c 83 0b f6 3b 4e ab 14 bc de e9 ee 3b
       0.027476357 0.0075086965 -0.009074045 0.0072910627
0000b0 75 c0 39 3d bd 63 ed 3b 4d d7 2a bc 10 96 20 3d
       0.045349557 0.0072445557 -0.010427308 0.03920561
0000c0 bc e9 e4 bb de c8 58 bc b3 9b bf 39 97 f6 7b bc
       -0.006985871 -0.013231484 0.00036546364 -0.015378616
0000d0 83 25 10 3d 13 f7 29 bb 37 24 08 bd ee b8 30 bc
       0.035192024 -0.0025934621 -0.033237662 -0.010786278
0000e0 25 e3 9d 3b 9d e3 1d 3a 19 7f 8c bc 50 0b d1 bb
       0.0048183375 0.0006022992 -0.017150449 -0.0063795224
0000f0 72 c5 f5 3c 7c a3 2f 3a 41 e6 7b 3d 1e 72 cc 3c
       0.030001376 0.0006700081 0.061498884 0.024956759
000100 9c 6b a8 bc 39 1f a5 bc 0f 3c 2a bc ee 1b 1e 3c
       -0.020559125 -0.02015649 -0.010390296 0.009650214
000110 69 0a 0d bd 2f a7 6d 3a 70 9b 15 3d f9 98 48 bc
       -0.034433756 0.0009065745 0.03652519 -0.012243503
000120 2a 70 e3 bc d5 c2 12 ba 2f 20 0d bc 70 f8 8f 3c
       -0.027763445 -0.000559849 -0.00861363 0.017574519
000130 99 44 b4 3c bb de fa bb 0d 12 c9 bc 43 b6 8e bc
       0.022005366 -0.007655946 -0.02454474 -0.017420894
000140 64 2c 9d ba 22 c4 b4 bb 4a d2 91 bc 64 d5 10 bd
       -0.0011991379 -0.005516545 -0.017800469 -0.035359755
000150 a1 09 b9 ba 34 1c c8 bb e2 80 6a bb 7c c4 c8 3b
       -0.001411725 -0.0061068777 -0.0035782387 0.0061269384
000160 0f 0a a9 bb 2f 0f 20 bd b8 a1 b1 bb 8b 13 f6 3b
       -0.00515867 -0.03907698 -0.0054208897 0.007509654
000170 e6 6f f7 bb b8 cd bb 3b 5e 89 44 bc 17 29 98 3b
       -0.007551181 0.0057313107 -0.0119956415 0.00464357
000180 e2 0a 04 3c d7 7d d8 3b f2 7a 1d 3c 1c 55 b1 bc
       0.008059235 0.006606798 0.009611832 -0.021647029
000190 ad 00 9c 3c 1b 11 15 bc 99 67 fc 3c bd 66 07 bc
       0.019043291 -0.009098317 0.030811118 -0.008264241
0001a0 f4 5e 30 bc 49 bf cb 3c 54 a8 67 bc 2e 1d 5d bd
       -0.010764826 0.024871485 -0.014139254 -0.053982906
0001b0 74 06 ea 3c c5 96 55 bc f2 87 9f 3b 80 25 d4 3a
       0.02856753 -0.013036435 0.004868501 0.0016185492
0001c0 11 3b 81 bb 9c f0 aa bb 6b bf 73 bc 24 c7 54 bc
       -0.003943809 -0.005216671 -0.014877181 -0.012986932
0001d0 10 2c ad bb f0 4a bd bc ee fe 0e bd 99 81 48 3d
       -0.0052847937 -0.023107022 -0.03491109 0.04895172
0001e0 f2 7f f6 bc 70 4c bc 3b b0 36 3a 3c 9b 89 6b 3c
       -0.030090306 0.0057464167 0.011365578 0.014376069
0001f0 c7 2c 77 3b 37 58 44 3c 4e 11 50 3c e4 71 a2 3c
       0.0037715898 0.011983923 0.012699438 0.019829698
000200 ad fe 07 3d 9e 2f 6a 3c 60 df 29 3d 18 d8 3d 3d
       0.033201862 0.014293579 0.041472793 0.04634866
000210 b2 91 68 bb e2 77 48 3d a1 2e 36 3b fc a3 6e 3c
       -0.0035487232 0.048942454 0.002779879 0.014565464
000220 1b 38 c0 bc d8 21 87 3c 1f a5 8a 3a ac 6a f4 3b
       -0.023464253 0.01649563 0.0010577774 0.0074590053
000230 7b 7e 80 3b 0c 1b fa 3b 13 46 16 3d 4a 99 9e 3c
       0.0039213276 0.007632619 0.03668792 0.019360203
000240 04 d2 91 3c df 30 9d bb 1b 96 e4 3b 7c 49 a5 3b
       0.017800339 -0.0047970857 0.006975902 0.0050441604
000250 92 81 8e bc 75 3c 7f 3c 59 eb 92 bc 17 ad dc 3c
       -0.017395768 0.015578379 -0.017934488 0.026938004
000260 38 c9 36 bb 50 8f a6 3a f7 f3 9d bc c6 6d ad bc
       -0.0027890932 0.0012707505 -0.01928137 -0.021170508
000270 72 d1 f9 bc 74 b2 0c bd 67 c7 fa bc 40 30 07 3c
       -0.03049538 -0.034349874 -0.03061266 0.00825125
000280 70 37 1f 3d ef d5 f2 3c 6b 80 86 3c f2 e0 db bb
       0.03887123 0.029643027 0.016418656 -0.006710165
000290 a5 af 88 bc 83 13 fb 3c 72 77 c4 3c e1 c7 f6 bb
       -0.016685316 0.030648952 0.023982737 -0.0075311516
0002a0 f1 2c 1c 3d b2 8a 66 3c 8b 14 04 3d 73 9d 56 3c
       0.038128797 0.0140711535 0.032246154 0.013099062
0002b0 69 12 42 3c 7b d8 96 3c e5 8a 77 bc 9e 69 dd bc
       0.01184521 0.018413773 -0.015108799 -0.027027901
0002c0 69 37 53 bc b6 e8 03 3b 06 8a 59 bb 60 ce 1c bc
       -0.012891629 0.002012772 -0.003319384 -0.009570688
0002d0 46 4a 25 bd dc d4 f2 bc a9 92 ff 3a 12 f7 e0 bc
       -0.040354036 -0.029642515 0.0019498664 -0.027461562
0002e0 47 ab f5 bc d3 bb de 3b 5e bb 23 3b 35 e0 f0 bb
       -0.029988898 0.0067972927 0.0024983506 -0.0073509463
0002f0 e8 7e 20 3c 5b 17 87 bc 0c a7 cf 3c 6e 8a 85 bc
       0.009795882 -0.016490629 0.025348209 -0.01630136
000300 1c 47 91 3a d3 90 c9 ba ce d5 fb bc 57 80 7c 3c
       0.0011083814 -0.0015378244 -0.030741598 0.015411458
000310 f9 62 a2 bc 10 6f 57 bb 7d 48 8b bc fb 9e 97 bb
       -0.019822584 -0.0032872595 -0.017002339 -0.0046271062
000320 77 7c f5 bb 4a 94 ac 3c 2f b9 34 bc 2b 2a 9c bb
       -0.007491644 0.021066803 -0.011030479 -0.004765769
000330 8d de 3b bb 8c 1c db bc 8f 6c 4c 3c 30 48 58 bc
       -0.0028666586 -0.02674701 0.012477054 -0.013200805
000340 92 2a 15 bc e7 e0 81 3c 62 26 d3 3c 77 ad b9 bb
       -0.009104388 0.015854312 0.025775138 -0.0056664306
000350 ce fe f4 3c 34 8f ac bc 5b 33 51 3c 97 32 9b 3c
       0.029906657 -0.021064378 0.012768592 0.018945022
000360 99 81 45 3c 65 69 2e 3d e4 01 04 3d 4b 1a 8b bc
       0.012054824 0.04258098 0.032228366 -0.01698031
000370 3a f4 1f 3d f8 8b 63 bc 05 2a c8 bb 4e 17 0e 3b
       0.039051272 -0.013888352 -0.0061085247 0.002168137
000380 6b f1 0d 3b 4c 74 8f bb 32 c0 3b 3c 37 43 a4 bc
       0.002165879 -0.0043778773 0.011459397 -0.020051582
000390 45 c5 4d bc 7b fa 5f 3c 1b a0 1e 3b 4c 1c 6e 3b
       -0.01255924 0.013670559 0.0024204317 0.0036332784
0003a0 ef e1 f0 3c d7 35 b5 bc dc 41 e4 ba 90 9c 1e 3d
       0.029404609 -0.0221204 -0.0017414647 0.03872353
0003b0 ae 3a d2 ba 96 7e 1d 3c bd 98 10 bc 0b 55 fc 3b
       -0.0016039216 0.0096127 -0.008825478 0.0077005676
0003c0 5a 81 08 3c f3 21 9d 3c 94 b9 c3 3c d0 3e 0c 3d
       0.008331621 0.019181227 0.023892201 0.03423959
0003d0 0d cf 2c bc 6f 89 48 bc c7 1d 53 bc 04 6a 98 bc
       -0.010547412 -0.012239798 -0.012885517 -0.01860524
0003e0 b7 31 1f bd 7c c8 79 3d 1b ca 00 3b d0 01 4f bc
       -0.03886577 0.060982212 0.0019651714 -0.0126347095
0003f0 b0 79 b4 bc 45 d1 40 3c 74 7b 01 bd e2 7e 95 bb
       -0.022030681 0.011768644 -0.031611875 -0.0045622448

encoder.layer.0.attention.self.value.bias f4 [16]
000000 00 00 00 00 00 00 00 00 00 00 00 00 00 00 00 00
       0.0 0.0 0.0 0.0
000010 00 00 00 00 00 00 00 00 00 00 00 00 00 00 00 00
       0.0 0.0 0.0 0.0
000020 00 00 00 00 00 00 00 00 00 00 00 00 00 00 00 00
       0.0 0.0 0.0 0.0
000030 00 00 00 00 00 00 00 00 00 00 00 00 00 00 00 00
       0.0 0.0 0.0 0.0

encoder.layer.0.attention.output.dense.weight f4 [16, 16]
000000 f3 bd 31 3c 56 4d 9e bb e5 cc 32 3c 74 01 45 bd
       0.01084851 -0.0048309965 0.0109131085 -0.04809709
000010 b2 02 c0 bb f4 bb 1a bc ea e4 e9 3c e4 2a ae bc
       -0.0058596963 -0.009444226 0.028551538 -0.021260686
000020 3c 76 36 3d 23 96 0e bd 82 f2 8c 3a 56 05 0c bc
       0.04454635 -0.03481115 0.0010753425 -0.008546194
000030 83 f3 f0 38 fe aa 97 bc e1 0a 61 3c 82 ce 0f 3c
       0.000114894494 -0.018514153 0.013735504 0.008777263
000040 98 d4 2c 3d 29 90 2f 3b 4e ec 75 bc 27 48 ef 3b
       0.042194933 0.0026788807 -0.015009953 0.0073023024
000050 db 9f ad bc 5e a0 4b bb ea 5b 6a 39 72 c9 a6 bb
       -0.02119439 -0.0031070928 0.0002235022 -0.005089932
000060 27 fe 6d 3c 4b bf 8d b8 5e e2 67 bc 3f 31 82 3c
       0.014525927 -6.759035e-05 -0.014153091 0.015892623
000070 0a 07 db ba 14 23 1e bd 9b ee a1 bc 29 4c 5f 3c
       -0.0016710472 -0.03860767 -0.019767096 0.013628998
000080 79 16 11 bc ab 5c 66 3b 54 dc 9b bc 9a 40 19 3c
       -0.008855456 0.003515045 -0.01902596 0.009353781
000090 ad 8a 08 3d 60 28 ce bc 91 c5 8f 3a 04 05 84 3a
       0.033335377 -0.025165737 0.0010968914 0.0010072296
0000a0 dd 9c c2 3c 56 8d b0 3c 9c 9a d6 bc 93 8f fc 3c
       0.023756439 0.02155177 -0.02619677 0.03083018
0000b0 85 1e 31 3c c4 2e ab bc 4f 6f 0a bc f2 64 d3 ba
       0.010810499 -0.020896323 -0.00844939 -0.0016128107
0000c0 85 a8 ac bb c2 11 90 bc 76 d3 99 ba 47 c9 7f 3c
       -0.0052691125 -0.017586593 -0.0011735994 0.015611953
0000d0 e4 1a 31 3d e4 83 5a bc e2 66 8a bb 60 f3 0a bb
       0.043238536 -0.013337109 -0.0042236904 -0.0021202192
0000e0 af 0f 30 bd 92 4a fd bb 07 b1 fe bc 80 64 e3 3c
       -0.042983707 -0.0077298367 -0.031090273 0.027757883
0000f0 2a 62 aa 3b 4b f7 52 bb 26 90 63 3c 1d 73 f2 3b
       0.0051996903 -0.0032190855 0.013889348 0.0073989765
000100 fd 92 ce 3c ad de 47 bd 64 f7 08 3c bd 4e fb bc
       0.025216574 -0.048796345 0.008359764 -0.030677194
000110 d5 83 9b 3b 06 7c 99 3c 44 4d a8 bb af 57 f4 3a
       0.00474594 0.018735897 -0.005136164 0.0018641854
000120 66 28 ce bc 7e 17 df bc ae 0b 23 bb 40 e6 06 3d
       -0.025165748 -0.027232882 -0.0024878788 0.032934427
000130 c7 02 c0 bc 88 3e 1f bc 2d 07 0f 3d 70 01 5c 3b
       -0.023438824 -0.009719498 0.034918953 0.0033570193
000140 1b aa 81 bc 0b 81 7a 3c b5 54 9d bc 04 d1 84 3c
       -0.015828183 0.015289555 -0.01920543 0.016212948
000150 19 45 30 bb d4 0a c8 bc ae ff 9a 3c 41 32 ec 3b
       -0.0026896654 -0.024419226 0.018920746 0.007208139
000160 f2 0c 9e 3c 3b 49 07 3d f2 06 f5 3c 9b ad 93 3c
       0.019293282 0.033028822 0.029910538 0.018027117
000170 40 e6 c0 3c a9 8c 19 bb e0 18 c4 3c 3e 81 06 3d
       0.023547292 -0.0023429787 0.023937643 0.0328381
000180 bf 4d 0e 3d f5 c1 d8 3c 5f 73 8c bb 81 b5 ac 3c
       0.034742113 0.026459673 -0.0042862142 0.021082642
000190 02 5a 3a 3d 06 7f 77 bc 5e e0 98 bc 62 0e dd 3a
       0.045495994 -0.015105968 -0.018661674 0.0016865248
0001a0 f8 f5 05 3d f3 33 69 3c 6f ff 85 3c 62 f0 35 bc
       0.032705277 0.014233577 0.016357152 -0.011104675
0001b0 30 bb 8a bc e2 de 76 bc 5d d3 93 3c a6 ec ac 3c
       -0.016934961 -0.015067788 0.018045122 0.021108937
0001c0 9b 56 0a 3d fd ee 59 3c 3c 80 e1 bb e1 14 32 bc
       0.033774 0.013301608 -0.006881742 -0.010869236
0001d0 e9 a8 47 bc 2e 54 67 3b ab eb 85 bc 4c 64 87 bb
       -0.012186267 0.0035297978 -0.016347727 -0.0041318294
0001e0 16 9c 85 3c c7 0b d0 bb f0 8e 46 3c 44 30 8e bc
       0.01630978 -0.00634906 0.01211904 -0.017357
0001f0 e8 72 0e bb 86 3c 04 3b de 83 c0 3c 38 14 b5 3c
       -0.002173597 0.0020177676 0.02350038 0.022104368
000200 1c 95 85 bc 4f e2 9d b9 99 91 a3 bb d9 93 b5 3b
       -0.016306452 -0.00030113987 -0.004991722 0.0055413065
000210 eb f2 20 3a 76 df a8 3b cf 9b 3f 3a c7 86 7d 3c
       0.0006139713 0.0051535917 0.0007309289 0.015474028
000220 b8 0c d4 3c c9 8d 7e 3c 36 cd 91 bb 13 72 93 bc
       0.025884971 0.015536734 -0.004449512 -0.01799873
000230 7c be fb 3c 4a b5 1c bc 16 fe 81 3c af 26 c2 bb
       0.030730478 -0.009564707 0.015868228 -0.0059250216
000240 f7 75 ac bc 0e 20 e5 3c 7d d6 d0 bc 80 a5 99 bc
       -0.021052344 0.027969386 -0.025492901 -0.018755674
000250 b6 de 2c bc 4b 1e 8d b9 0a fe a4 3c e7 3a 40 3d
       -0.010551145 -0.00026916186 0.020140667 0.046931174
000260 c1 aa 1e ba 6d 82 19 3c fc 16 bb bc 78 64 f8 3c
       -0.0006052666 0.009369475 -0.022838108 0.030321345
000270 22 cb b4 bc 83 83 19 ba 42 a3 d1 3b 3b 6c 15 bc
       -0.022069518 -0.00058560836 0.0063976357 -0.009120042
000280 7f cd 95 3c af 73 11 bc d1 4d 01 bc 4b cb a4 3c
       0.018286465 -0.008877679 -0.007892088 0.020116469
000290 38 db 1d bc 89 a6 11 3b f5 65 69 3b 46 59 8d 3c
       -0.009634785 0.0022224507 0.003561375 0.017254483
0002a0 a1 fc 9d 3c 44 fc 39 bc e4 1c 23 bc cb e1 d0 bc
       0.019285502 -0.011351649 -0.0099556185 -0.025498291
0002b0 0e aa 47 bb cb d7 ad 3c ee 7a 88 bc fd e0 02 3d
       -0.003046635 0.021221062 -0.01666018 0.031952847
0002c0 e9 0b 16 bc 7b e8 a9 bb 78 b9 c8 3b 1e 0b f1 bc
       -0.009158113 -0.0051851845 0.006125625 -0.029424246
0002d0 47 5f a4 3b df 08 85 bc 8b a0 30 bc 64 6a 1e 3c
       0.0050162408 -0.016239582 -0.010780464 0.00966892
0002e0 f3 0f 74 3a cf 6f f5 ba 92 3a 40 3c 49 ad d9 bc
       0.0009310238 -0.0018725338 0.011732714 -0.026571887
0002f0 70 21 ab bc 19 63 6f 3c 00 e8 cb bb 27 46 49 bc
       -0.020889968 0.014611029 -0.006222725 -0.012284792
000300 d9 b9 48 bd 6d 24 1b 3c 2f 99 e0 3b db 6d af bc
       -0.049005363 0.009469134 0.0068541984 -0.021414688
000310 b2 0e 1c 3d 81 17 e1 39 26 a4 23 36 cc ed a1 bb
       0.038099952 0.00042932856 2.438444e-06 -0.0049416777
000320 a6 17 44 3c c7 b3 99 bc 2f a4 bc bc 50 88 d2 bb
       0.011968529 -0.018762482 -0.023027508 -0.006424941
000330 8f af 82 bc 60 9a 48 bb 45 99 e4 bb fe 9d 10 bc
       -0.015952853 -0.0030609593 -0.006976279 -0.008826731
000340 01 2b db 3b c2 c3 8f bc 65 fd 59 3c a7 dc d5 3b
       0.006688476 -0.0175494 0.013305043 0.006526548
000350 4d 8b 4b bb 6f 85 f9 bc 12 d3 88 bc 3e 34 e8 bc
       -0.0031058372 -0.030459134 -0.016702209 -0.028345224
000360 cd e0 20 bc e2 dd e5 3c f7 80 aa 3c 6e 5e 6c 3b
       -0.009819222 0.028059904 0.020813448 0.0036067027
000370 e2 27 85 bc b4 23 2d bc 50 3e 2d 3d cd 0d a8 3c
       -0.01625437 -0.010567594 0.042295754 0.020514393
000380 0e 4d c7 3b 7e 6d 4a bb 05 7a af 3c 10 1b 49 bc
       0.0060821837 -0.0030888016 0.021420488 -0.012274519
000390 4b 1f 8a bc 0b 10 e1 3c 98 5b de bb 89 da 28 3c
       -0.016860625 0.02747347 -0.006785821 0.010306009
0003a0 2d a3 34 ba 06 a1 f8 bc a9 b3 80 bc 60 86 40 bb
       -0.000689077 -0.03035022 -0.015710669 -0.0029376969
0003b0 0f 6c 89 bc 4c 3f d7 3c 54 8e 38 bd 0f cb be bc
       -0.01677516 0.0262753 -0.04505761 -0.023290185
0003c0 09 09 41 3c 9d b4 8a bc 1b e0 1c 3d a3 d9 1d 3c
       0.011781939 -0.016931826 0.03829966 0.009634408
0003d0 74 05 30 3c 68 96 05 bd a0 44 fa bb 40 77 2a 3d
       0.010743488 -0.03261414 -0.0076375753 0.041617632
0003e0 66 f1 b0 bb 6a fe 5f bb e7 92 89 3c d3 ac d8 3b
       -0.0053998707 -0.0034178742 0.016793681 0.006612399
0003f0 de a0 12 bc f8 06 31 bd 4a 83 fb 3b 79 f4 55 bd
       -0.008949487 -0.043219537 0.007675563 -0.0522351

encoder.layer.0.attention.output.dense.bias f4 [16]
000000 00 00 00 00 00 00 00 00 00 00 00 00 00 00 00 00
       0.0 0.0 0.0 0.0
000010 00 00 00 00 00 00 00 00 00 00 00 00 00 00 00 00
       0.0 0.0 0.0 0.0
000020 00 00 00 00 00 00 00 00 00 00 00 00 00 00 00 00
       0.0 0.0 0.0 0.0
000030 00 00 00 00 00 00 00 00 00 00 00 00 00 00 00 00
       0.0 0.0 0.0 0.0

encoder.layer.0.attention.output.LayerNorm.weight f4 [16]
000000 00 00 80 3f 00 00 80 3f 00 00 80 3f 00 00 80 3f
       1.0 1.0 1.0 1.0
000010 00 00 80 3f 00 00 80 3f 00 00 80 3f 00 00 80 3f
       1.0 1.0 1.0 1.0
000020 00 00 80 3f 00 00 80 3f 00 00 80 3f 00 00 80 3f
       1.0 1.0 1.0 1.0
000030 00 00 80 3f 00 00 80 3f 00 00 80 3f 00 00 80 3f
       1.0 1.0 1.0 1.0

encoder.layer.0.attention.output.LayerNorm.bias f4 [16]
000000 00 00 00 00 00 00 00 00 00 00 00 00 00 00 00 00
       0.0 0.0 0.0 0.0
000010 00 00 00 00 00 00 00 00 00 00 00 00 00 00 00 00
       0.0 0.0 0.0 0.0
000020 00 00 00 00 00 00 00 00 00 00 00 00 00 00 00 00
       0.0 0.0 0.0 0.0
000030 00 00 00 00 00 00 00 00 00 00 00 00 00 00 00 00
       0.0 0.0 0.0 0.0
