subpackages/camphr_cli/tests/fixtures/bert-test/pytorch_model.bin (torch_old, 17539 bytes, 39 tensors)

embeddings.word_embeddings.weight f4 [1000, 2]
00000000: ce3e f93c 42e8 10bc 2821 953c cbc8 603c
00000010: 89a7 a23c 8299 343c b8a7 f9bb d5af 6bbc
00000020: 8b6b f63b c979 d53c 23c6 9d3c aa6a 103c
00000030: 505f 10bb 577a 243c 5255 91ba f538 d4bc
00000040: 91a5 9f3c 49c1 073c aa26 4dbc e772 31ba
00000050: eecf 7f3b 39a8 d6bb 02c8 ca3c 8a8b fb3c
00000060: 52f8 e0bc ab55 853c a137 5e3c 7219 593b
00000070: 34e4 1bbd dc6e adba a977 ffbb 1db7 8d3b
00000080: 5d98 00bd 7e66 003b 1e76 61ba 7480 2a3c
00000090: 75fc 843b de9e d63c 0d74 8bbb 4b8e d63c
000000a0: c0d4 213d aed4 e33b 2506 303c 2830 86bc
000000b0: af48 aebc 720e 0dbc 1b93 8d3c 944a ba3b
000000c0: fd8e 6039 eed9 3c3c 7fdc 17bc feab b83c
000000d0: 5e07 81bb fd14 3b3d 0f86 92bc 9868 263c
000000e0: c3cb 173d 0bcb 0a3a aa7d b6bc 9fc8 923b
000000f0: 9b43 b2bc 071b 82ba e90f 1c3b 0fcc 393c
00000100: d275 03bd ce27 39bd a710 0cbc 84d1 0abd
00000110: 02f2 ca3b b451 33bc bfcc 87bb 198c 15bc
00000120: 524e 04bd 3c99 4cbc 73e3 cb3b 029b 813c
00000130: aa14 b2bc d386 843c a2c1 c73c b428 103c
00000140: c951 863b 1224 e4ba 4e19 a2bb 2291 4c3d
00000150: 43de 09bc 9edf e53c 7643 ab3c 7025 8d3b
00000160: 1c1a 733c 0d43 803c 6b8a 343c f24b b53b
00000170: 55af 353c 832e 963c c9df da3c 4d83 873b
00000180: a984 50bc 2e82 133c f42d 773c 923b 21bb
00000190: 5417 d13c 5e60 a2bb 40d5 a5bc 18ab 9cbc
000001a0: 732e 203c 0dfc 0b3b 6ef4 95bb 9bb5 f73c
000001b0: 38cd e93c abe7 8d3c 1716 4b3d 32ce c3bc
000001c0: 24fe 89bc 5cbb 4bbc 77d2 e23c 7dce 93bc
000001d0: de2c 1abc f34e af3b 3354 6d3b c93c de3b
000001e0: f74e af3c 6b48 ca3c 3c30 ddbb 5d15 673c
000001f0: 95ae a33c 473b 04bd b95e 0cbd e69c 2a3d
00000200: 94e1 36bc 70ee 1bbc aed5 c0b9 8b8b 803c
00000210: a0f4 593a 22ff 523c cdf9 89bc 147d c13c
00000220: ee37 0a3c 6ee5 963b 5901 9bbc 5392 c3b9
00000230: 6d8e b2bc 81af acbb fb98 0b3d 40aa 40bb
00000240: 46c3 4fbb fb04 983c 8b6b 783c beac f23c
00000250: 2e25 0cbd d9aa efbb e35b e93c 347a a1bc
00000260: b0ca b8bb a482 1d3d 2039 223d 97dc d0bc
00000270: bc0e c8bc a9fe 0fbc 0b78 c1bc 27f1 443c
00000280: 84b8 cf39 b4eb 063c 4e2f c53c a7da e53c
00000290: 87a2 223c 2023 8bbc 6aac df3b 73c4 b4bc
000002a0: 865d 08bd 2f62 313c 5fbe 8ebc 1218 163c
000002b0: 7744 8b3b 8ba9 96bc c149 18bd d6a1 81ba
000002c0: f470 21bc 788d 09bc 933e f2bb 4eff be3b
000002d0: d7d9 423c cf84 933b d8a8 68bb 9323 5d3c
000002e0: a93a bf3c a585 50bb 8441 99bb ab32 cd3c
000002f0: d640 0d3d fe73 4b3b b7ab 65bc 4938 3abd
00000300: 461a 423b 20e5 a73c 7bb9 0a3a 85c2 343d
00000310: 6eb6 3abc 2e7a ecbb 654c d63c 6936 4dbd
00000320: 7b88 c73c aa19 7f3c b766 133d a4e4 9abc
00000330: ef9e 3ebc de9d 683c 4725 b3bc 22ad d2bb
00000340: 7342 9a3c ee3f de3c 3285 6bbc ed79 8cbd
00000350: 7f0f 0f3c ea28 f33c 8208 d23b 1835 c13b
00000360: dec3 2bbd 6566 873c 2beb 22bc a291 9a3c
00000370: c6f9 d13b 3f01 9fbb 0768 163b 1fa6 9b3a
00000380: a98d f5bc 73d7 b1bb 2656 0fbc c0da febc
00000390: 2ef0 c6bc 768d 1ebd 9cba 153c e7c4 71bc
000003a0: 18b3 983c bbd0 3fbc 12cb ee3b 7637 0f3c
000003b0: 8e85 7abc a5c0 e3bc ab58 933c cb8c e93c
000003c0: ce20 ad3c d7d9 843c 5dd3 8c3c 966a 963b
000003d0: 6e70 d73a e6da c3bc f7f0 4c3c 62c7 0b3c
000003e0: c71a 513c 705b 0f3b 2cb2 69bc e4d0 d03c
000003f0: 12b8 533c 33ca 6f38 bdc6 c5bb 29a3 483c
0.030425455 -0.008844437 0.018204287 0.013719748 0.019855278 0.011022927 -0.0076188706 -0.014385183
0.0075201443 0.026059048 0.019259518 0.008814493 -0.0022029467 0.010038934 -0.001108805 -0.025906065
0.019488128 0.008285829 -0.012521425 -0.0006769136 0.0039033848 -0.0065508154 0.024753574 0.030706186
-0.027462158 0.016276201 0.013563068 0.003312674 -0.03805943 -0.0013231891 -0.007796247 0.0043248073
-0.031395305 0.001959234 -0.00086006697 0.010406602 0.0040584155 0.0261988 -0.0042557777 0.026190897
0.039509535 0.0069528436 0.0107436525 -0.016380385 -0.021274893 -0.008609401 0.01728206 0.00568516
0.00021415572 0.011526568 -0.009268879 0.02254295 -0.003937646 0.045674313 -0.01788619 0.010156773
0.037059557 0.0005294538 -0.022276718 0.0044794823 -0.021760752 -0.0009926268 0.0023813194 0.011340155
-0.032094784 -0.045203976 -0.008548892 -0.033891216 0.0061934004 -0.0109447725 -0.0041442807 -0.00912764
-0.032301255 -0.012487706 0.0062221824 0.015820984 -0.021738369 0.01617757 0.024384324 0.008798767
0.004099105 -0.0017405769 -0.004946864 0.049943097 -0.008414808 0.02806073 0.020906191 0.0043074414
0.014837768 0.015656972 0.01101933 0.005532735 0.011089166 0.018332725 0.026718037 0.0041355253
-0.012726941 0.009003205 0.01508664 -0.0024602157 0.025523819 -0.0049553355 -0.020243287 -0.019124553
0.009776699 0.002135995 -0.0045762574 0.030237963 0.028540239 0.017322382 0.049581613 -0.023902033
-0.016844817 -0.012434807 0.027688248 -0.018042797 -0.009410111 0.0053499877 0.0036213517 0.0067821485
0.021399958 0.024692735 -0.0067501348 0.0141042145 0.019980708 -0.032283094 -0.034270022 0.041653536
-0.01116218 -0.009517297 -0.00036780298 0.01569154 0.0008314345 0.012878211 -0.016842747 0.023619212
0.008436186 0.004604987 -0.018921541 -0.00037302318 -0.02179643 -0.005269945 0.03408144 -0.0029398352
-0.0031702085 0.018557062 0.015162359 0.029623386 -0.034215145 -0.007314068 0.028486198 -0.019711591
-0.0056393966 0.038454667 0.03960526 -0.02549581 -0.024421088 -0.008788743 -0.023616811 0.012020386
0.00039619592 0.008234907 0.024070408 0.028058363 0.009926445 -0.016984522 0.0068259733 -0.02206633
-0.033292316 0.010826631 -0.01742476 0.009161012 0.004250105 -0.018391391 -0.037179712 -0.000989015
-0.00985359 -0.008395545 -0.0073927133 0.0058287745 0.011892757 0.004501916 -0.003550103 0.013497251
0.023343401 -0.003181794 -0.0046769995 0.025048574 0.03448566 0.0031044479 -0.014017991 -0.045463834
0.002961771 0.020494998 0.0005291921 0.04413082 -0.011396034 -0.0072167134 0.026159475 -0.050100718
0.024357071 0.015570084 0.03598663 -0.018907852 -0.011634572 0.014197795 -0.021868361 -0.0064293304
0.018830514 0.027130093 -0.014375018 -0.06859193 0.008731722 0.029682595 0.0064097056 0.005896222
-0.04193484 0.016528318 -0.009943764 0.018868271 0.006407949 -0.0048524435 0.0022950189 0.001187507
-0.029974775 -0.005427295 -0.008748567 -0.031110168 -0.024284448 -0.038709126 0.009138729 -0.014756418
0.018640086 -0.01170748 0.0072873915 0.00874125 -0.015290631 -0.027801821 0.017986616 0.028509518
0.021133807 0.016217155 0.01719063 0.0045903428 0.0016436705 -0.02390809 0.012508622 0.008531423
0.012762732 0.002187457 -0.014263671 0.025490232 0.012922304 5.7170353e-05 -0.0060356543 0.012245932

embeddings.position_embeddings.weight f4 [64, 2]
00000000: 4a40 2fbc e05e f6bb eb08 1e3a 92e0 2cbc
00000010: a503 b8bb 50e6 fdbb 26b5 41bc 15c9 17bd
00000020: 27bc f33c 2137 e93c dd9f 3dbc 2031 573c
00000030: 6d1b 323c 6936 afbc acc7 59bc 1deb a53c
00000040: ab62 64bc 582c 31bc 0afd 05bd e19e 633c
00000050: 2554 e0bb ce67 d73b 9eed c3bc d293 16bc
00000060: 24e9 d83c 8f25 c7b9 de83 d63b f9fd 693c
00000070: af03 00bd 0fdb d6bb 37f1 14bc 848d 4b3b
00000080: beee c9bc b3bc 90bc db95 48bb b09b 4839
00000090: f7fc 3dbb c5d6 ee3b 21eb 2cbb b4ac 383c
000000a0: 2524 283d 3b1b 60bc 479d 7cbc cb77 333d
000000b0: 860c 0a3d 43c1 6c3c 0f19 cabb 3db9 c8bc
000000c0: 53cc 573c db35 663c c50a abbc 6998 b7bb
000000d0: 59c3 5e3c 073d 8d3c be5d 453c 7ff4 833c
000000e0: e9fa 513b c187 c73c 1fe5 0abd 9783 b8bc
000000f0: cdb1 0a3d c5f0 9abc 1762 113c 11f3 22bc
00000100: deba d0bc 595b 4d3c 33a4 443b 62ea ccbb
00000110: cdb0 b7b5 a7d9 383c 5772 07bb 1ec2 a5bc
00000120: 90fe c03c 14d0 2c3d 4e35 e93a bb47 383c
00000130: 24ae 073b 9bed 54bc 4d7e b0bc e44d 46bd
00000140: eef3 38bc e1f6 eb3c 7311 febb 6699 f9bc
00000150: 5570 783b 1d6e e5bc 89dd 9e3c e312 79bb
00000160: 92b1 de39 2228 d239 21d6 9fbb f0e7 55bc
00000170: cf7c c23b c756 1cbc 4999 d8bc 7324 d6bc
00000180: a022 17bb ab20 4e3c c767 86bc 6fc6 c93c
00000190: 21fc e63b 702d ef3c 393b 743c e7e7 6a3c
000001a0: f2f0 133d f0db 7f3c b904 20bd db82 1abd
000001b0: 7c55 a93c 2a20 2f3d 0431 3c3c 50ea 9a3b
000001c0: b9f6 223b 8ea8 9b3b e4e6 883b fad6 02bd
000001d0: fb96 013a aa6e c8bc f014 553c 270f 0639
000001e0: b3fa 1bbd 18f3 ce3b f3f5 febb e429 423d
000001f0: 8c8d d73c 4729 83bc c19a c43b 04d1 53ba
-0.01069648 -0.007518634 0.00060285506 -0.010551589 -0.005615669 -0.0077484027 -0.011822974 -0.037057
0.029752804 0.02846867 -0.011573759 0.013134271 0.010870797 -0.02138825 -0.013292234 0.020253712
-0.01393954 -0.010813795 -0.03271202 0.01389286 -0.0068459683 0.006573654 -0.023917016 -0.009190517
0.026478358 -0.0003798422 0.0065464815 0.014281743 -0.031253513 -0.0065568755 -0.009090713 0.0031059692
-0.024649974 -0.017668104 -0.00306069 0.00019131484 -0.002898989 0.007288786 -0.0026385265 0.011271644
0.041050095 -0.013678367 -0.015418357 0.043815415 0.03370335 0.014450374 -0.006167538 -0.024502391
0.013171273 0.014050926 -0.020879159 -0.0056028855 0.013596379 0.017241014 0.012046276 0.016107796
0.0032040423 0.024356725 -0.033909913 -0.022523684 0.03386097 -0.018913636 0.008873484 -0.009945647
-0.02547973 0.012533986 0.0030005097 -0.0062535265 -1.3686018e-06 0.011282361 -0.0020667517 -0.020234164
0.023558885 0.042190626 0.0017792375 0.011247571 0.002070316 -0.012996103 -0.0215446 -0.048414126
-0.011288626 0.028804244 -0.007753545 -0.030468654 0.0037908752 -0.028006608 0.019392746 -0.0038005642
0.0004247544 0.00040084223 -0.004877821 -0.0130557865 0.0059352885 -0.009542174 -0.02644028 -0.026140427
-0.002306141 0.012581031 -0.016406907 0.024630753 0.007049099 0.029196471 0.014906698 0.014337516
0.036118455 0.015616402 -0.039067004 -0.03772245 0.020670645 0.042755283 0.011486296 0.0047276393
0.0024866296 0.004750318 0.004177915 -0.0319433 0.00049434573 -0.024466831 0.01300548 0.0001278488
-0.038080882 0.0063156 -0.0077807843 0.04740323 0.026312612 -0.016010894 0.0059998934 -0.0008080157

embeddings.token_type_embeddings.weight f4 [2, 2]
00000000: 6fdd 61bc 550b e6bc b9e0 913c 6964 6e3c
-0.013785704 -0.028081575 0.017807351 0.014550307

embeddings.LayerNorm.weight f4 [2]
00000000: 0000 803f 0000 803f
1.0 1.0

embeddings.LayerNorm.bias f4 [2]
00000000: 0000 0000 0000 0000
0.0 0.0

encoder.layer.0.attention.self.query.weight f4 [2, 2]
00000000: b1cf 053d ee9c 54bc e105 9fbc 7dd6 89bc
0.032668773 -0.012976868 -0.019411983 -0.016825909

encoder.layer.0.attention.self.query.bias f4 [2]
00000000: 0000 0000 0000 0000
0.0 0.0

encoder.layer.0.attention.self.key.weight f4 [2, 2]
00000000: e54f 2eb9 56ef b1bc 3823 0fbd d38d c2bc
-0.00016623696 -0.02172057 -0.034945697 -0.023749268

encoder.layer.0.attention.self.key.bias f4 [2]
00000000: 0000 0000 0000 0000
0.0 0.0

encoder.layer.0.attention.self.value.weight f4 [2, 2]
00000000: 19ee f63b efcc 3abd 1a0a c9bc d3b7 333c
0.0075357077 -0.045605596 -0.02454095 0.01096912

encoder.layer.0.attention.self.value.bias f4 [2]
00000000: 0000 0000 0000 0000
0.0 0.0

encoder.layer.0.attention.output.dense.weight f4 [2, 2]
00000000: 70be c5bc 9121 0e3c f6cc db3c 63db 8f3c
-0.02413866 0.008674995 0.026831131 0.017560666

encoder.layer.0.attention.output.dense.bias f4 [2]
00000000: 0000 0000 0000 0000
0.0 0.0

encoder.layer.0.attention.output.LayerNorm.weight f4 [2]
00000000: 0000 803f 0000 803f
1.0 1.0

encoder.layer.0.attention.output.LayerNorm.bias f4 [2]
00000000: 0000 0000 0000 0000
0.0 0.0

encoder.layer.0.intermediate.dense.weight f4 [8, 2]
00000000: 9b79 cc3c c67f 80bc fc53 6c3c f56b 083d
00000010: 82da 72b9 701c 1e3c d714 d43b c0a2 043d
00000020: 431b 83bc 65d2 d23c 1321 22bc 2ba6 a9bc
00000030: 29e7 533c 5792 823b e294 00bc c475 8dbc
0.02496033 -0.015685927 0.01442432 0.03330608 -0.00023160319 0.009650335 0.006472211 0.032381773
-0.01600421 0.02573509 -0.009895581 -0.020709118 0.012933531 0.00398473 -0.007847996 -0.01726807

encoder.layer.0.intermediate.dense.bias f4 [8]
00000000: 0000 0000 0000 0000 0000 0000 0000 0000
00000010: 0000 0000 0000 0000 0000 0000 0000 0000
0.0 0.0 0.0 0.0 0.0 0.0 0.0 0.0

encoder.layer.0.output.dense.weight f4 [2, 8]
00000000: edff 923b 814c 273c 494f 803b af1c fd3b
00000010: 84ea 01bd e127 aebc d2df 223b c3e8 fb3c
00000020: 6ab0 b0bb 0b34 22ba d506 f63c 17e6 debb
00000030: f5a9 003d 93df 4d3b 7385 5dbc 4b9c 0abc
0.004486075 0.010211111 0.0039157015 0.0077243666 -0.031717792 -0.02125925 0.0024852646 0.030750638
-0.005392124 -0.00061875646 0.030032555 -0.006802331 0.031412084 0.0031413778 -0.013520586 -0.008460115

encoder.layer.0.output.dense.bias f4 [2]
00000000: 0000 0000 0000 0000
0.0 0.0

encoder.layer.0.output.LayerNorm.weight f4 [2]
00000000: 0000 803f 0000 803f
1.0 1.0

encoder.layer.0.output.LayerNorm.bias f4 [2]
00000000: 0000 0000 0000 0000
0.0 0.0

encoder.layer.1.attention.self.query.weight f4 [2, 2]
00000000: af01 273c c773 99bc 85b2 90bb 1d4b 063d
0.0101932725 -0.018731965 -0.0044158124 0.032786477

encoder.layer.1.attention.self.query.bias f4 [2]
00000000: 0000 0000 0000 0000
0.0 0.0

encoder.layer.1.attention.self.key.weight f4 [2, 2]
00000000: 5bbd 523c 1c3c 1fbc f7cc a73b f3ca 813a
0.012862529 -0.009718921 0.0051208693 0.0009902403

encoder.layer.1.attention.self.key.bias f4 [2]
00000000: 0000 0000 0000 0000
0.0 0.0

encoder.layer.1.attention.self.value.weight f4 [2, 2]
00000000: 6f0c 203b ce8b bcbb d156 20bc 32f0 213d
0.0024421473 -0.0057539707 -0.009786324 0.03953571

encoder.layer.1.attention.self.value.bias f4 [2]
00000000: 0000 0000 0000 0000
0.0 0.0

encoder.layer.1.attention.output.dense.weight f4 [2, 2]
00000000: 0ce9 a33c deae c0bc 115c e4bb 0e2d 7ebc
0.020008586 -0.023520883 -0.006968983 -0.015513672

encoder.layer.1.attention.output.dense.bias f4 [2]
00000000: 0000 0000 0000 0000
0.0 0.0

encoder.layer.1.attention.output.LayerNorm.weight f4 [2]
00000000: 0000 803f 0000 803f
1.0 1.0

encoder.layer.1.attention.output.LayerNorm.bias f4 [2]
00000000: 0000 0000 0000 0000
0.0 0.0

encoder.layer.1.intermediate.dense.weight f4 [8, 2]
00000000: 37bb 4cbc 1c25 8cbc 0b01 23bc e639 4abc
00000010: 4f3a 77bc 3927 12bd 13ba 313d ccc8 dcbb
00000020: a4e2 16b9 d3f5 bb3b 9403 8c3b 93ff 42bc
00000030: 3c72 54bd e103 d9ba f8d5 46bc 99b8 38bc
-0.012495807 -0.017107539 -0.009948979 -0.012342906 -0.015089585 -0.035681937 0.043390345 -0.006737804
-0.00014389545 0.0057360916 0.0042728875 -0.011901754 -0.051866755 -0.0016556942 -0.012135975 -0.01127448

encoder.layer.1.intermediate.dense.bias f4 [8]
00000000: 0000 0000 0000 0000 0000 0000 0000 0000
00000010: 0000 0000 0000 0000 0000 0000 0000 0000
0.0 0.0 0.0 0.0 0.0 0.0 0.0 0.0

encoder.layer.1.output.dense.weight f4 [2, 8]
00000000: aa8e 35bb f3c7 27bc bebe 2f3d 8f19 02bd
00000010: 249a 433d cb9c ca3c 9e61 483c a465 913c
00000020: e5f1 bdbc 1493 213c 0ad5 563c 743b 1bbc
00000030: 42b2 a33c c420 663c b5c0 5e3c eabd 6b3c
-0.0027703443 -0.010240543 0.042906515 -0.031762656 0.04775442 0.024732968 0.012230305 0.017748661
-0.023186633 0.009861726 0.013112316 -0.009474624 0.01998246 0.014045898 0.01359575 0.014388541

encoder.layer.1.output.dense.bias f4 [2]
00000000: 0000 0000 0000 0000
0.0 0.0

encoder.layer.1.output.LayerNorm.weight f4 [2]
00000000: 0000 803f 0000 803f
1.0 1.0

encoder.layer.1.output.LayerNorm.bias f4 [2]
00000000: 0000 0000 0000 0000
0.0 0.0

pooler.dense.weight f4 [2, 2]
00000000: 106e 1e3c 1f0e 67bd ef99 1b3d 4f36 f539
0.009669796 -0.05640995 0.0379886 0.00046770505

pooler.dense.bias f4 [2]
00000000: 0000 0000 0000 0000
0.0 0.0
